augmented_diabetes_model.pt (torch, 72524 bytes, 8 tensors)

fc1.weight f4 [64, 8]
000000 d5 1d c1 be 79 72 6c be d9 5e 1e 3e 13 18 30 be
       -0.37718073 -0.23090543 0.15465869 -0.17196684
000010 09 ee 47 3e f1 27 e1 bd 76 f0 32 be 5f 2b ad bd
       0.19524397 -0.10993946 -0.17474541 -0.08455538
000020 f7 67 3d bd a7 66 20 be 21 ff 6d 3e 8f 71 b0 bd
       -0.046241727 -0.15664159 0.23241855 -0.086154096
000030 ed 0d 2c 3d 58 ce 6d 3d 69 93 57 3f 9e 4a da be
       0.04200547 0.058058113 0.84209305 -0.42635053
000040 78 d9 5c be bc 2b 0d be ca a2 b9 3e 2d 77 14 be
       -0.21567333 -0.13786215 0.3625701 -0.14498587
000050 9f 03 67 3e 19 14 f5 bd 9c e2 28 be c0 61 6d bd
       0.22559975 -0.11966724 -0.16492695 -0.05795455
000060 b2 10 35 3e 57 9c ab be 4c 31 b2 3d aa 8c ae be
       0.1768215 -0.33517715 0.08700809 -0.34091693
000070 4c b2 a2 3d 8d 39 85 be bf 28 91 3e 70 39 a3 bd
       0.07944164 -0.2602047 0.283514 -0.0796994
000080 0d cb 88 3e 0c 40 fa 3d 1c 37 91 3e e9 6b 9a bd
       0.26717415 0.12219247 0.28362358 -0.075401135
000090 c3 4c 80 be b8 70 8d 3e cf 03 49 be bd a6 ad be
       -0.25058565 0.2762506 -0.19630359 -0.33916274
0000a0 ac 9d cb 3c cf 6d 1c 3e d4 1a f3 bd 07 1a 4a be
       0.024855457 0.15276264 -0.118703514 -0.19736491
0000b0 e9 5e 8f 3d 47 5d bf bd 76 b9 56 be 02 42 29 bd
       0.070005246 -0.09343963 -0.20969185 -0.041322716
0000c0 4f dd c4 3e c8 55 e5 be f0 a1 60 3e 46 bf 08 bd
       0.38450095 -0.44792008 0.21936774 -0.033385538
0000d0 8d 98 28 bf e4 d5 f6 bd 4d 95 71 be ba 43 61 3e
       -0.65857774 -0.12052515 -0.2359211 0.21998492
0000e0 3a fb 56 be b8 cf 06 3e 12 23 21 3e 08 66 fd bd
       -0.20994273 0.13165176 0.15736035 -0.123729765
0000f0 92 1f c1 bc db c0 e1 3d b5 ed 69 3e 4a 42 54 3e
       -0.023574624 0.110231124 0.22844584 0.20728412
000100 60 e0 8f bd e9 a7 5a be 70 dc 27 be b0 71 14 bd
       -0.07025218 -0.21353115 -0.16392684 -0.036241233
000110 40 9f a7 bb 92 26 25 3e b0 a0 d9 3c 00 c7 b9 3d
       -0.0051154196 0.16127995 0.02656588 0.09071159
000120 ab f8 6c 3d e5 b3 25 3e 5b 00 9c be 53 4d 13 be
       0.057854336 0.16181906 -0.3046902 -0.14384966
000130 6a a2 48 3e c5 72 81 be df 67 04 3f af 8a b4 3e
       0.19593206 -0.25282875 0.51720995 0.35262057
000140 1e 08 cb bd 69 93 97 3e 30 f2 01 bd bd f2 5d 3c
       -0.099136576 0.29604653 -0.03172511 0.013546643
000150 9e c4 ce be 90 04 17 3e 42 d3 23 be 8f 55 8f 3e
       -0.40384382 0.14747834 -0.15998557 0.27994964
000160 b2 5b d2 bd 29 5f ae 3d 10 f7 28 3e 95 a6 48 3d
       -0.10271396 0.08514244 0.16500497 0.04898699
000170 3f 03 6f 3e fb f9 66 be c3 80 a4 3e 56 72 82 3e
       0.23341082 -0.22556297 0.32129487 0.25477856
000180 75 7d 6d 3e c5 fc 8d 3e b9 0c 94 be 92 f7 3a bd
       0.2319239 0.2773191 -0.28915957 -0.045646258
000190 48 f5 a0 bc b7 9c c3 be 05 87 5c 3e 4d 06 a1 3e
       -0.01964821 -0.382055 0.21535881 0.3145012
0001a0 b8 7f d7 be f0 bf 29 be 4b 0c 8a be a9 d0 f3 3d
       -0.4208963 -0.16577125 -0.26962504 0.11905033
0001b0 05 d8 86 3e 84 7e d2 be 59 69 b2 be 9c 75 fc 3d
       0.26336685 -0.4111215 -0.34846 0.1232712
0001c0 b2 ed b6 bd 49 2c 47 3e 22 00 45 bd 71 18 b7 bd
       -0.089320555 0.19450487 -0.04809583 -0.08940209
0001d0 16 08 f5 3d 12 5d f6 be 89 dc f1 be 76 0f 8f bd
       0.11964433 -0.48117882 -0.47238567 -0.06985371
0001e0 b1 e2 9e be ab 5e 10 be 47 1a ae be 58 f1 10 bd
       -0.31032327 -0.14098613 -0.34004423 -0.035386413
0001f0 b3 14 38 be e5 ae a5 3e 98 8d aa 3d fd ff 6d be
       -0.17976646 0.32359996 0.08327788 -0.23242183
000200 92 75 75 be 41 c9 84 3e 3a 9d 68 be 5d 27 a5 3e
       -0.23970631 0.25934795 -0.22716227 0.32256594
000210 58 ec 51 3e 53 1c d7 3d eb 57 1b bd 2b c7 2d be
       0.20500314 0.10503449 -0.037925642 -0.16970508
000220 a5 a3 6a 3e 77 30 5d be 34 f0 09 3e cd 65 94 3e
       0.22913988 -0.21600519 0.13470536 0.28983918
000230 67 ce 83 bd 7e ad 01 bc a6 0b 5a bf e7 a7 8d 3e
       -0.064358525 -0.007914899 -0.85174024 0.27667162
000240 59 89 61 bd 7b b9 5b 3e fb 8e c7 be 7b 0a 0f be
       -0.055062626 0.21457474 -0.38976273 -0.13968842
000250 46 c5 87 3e dd 8f 57 3e 3d c7 5f 3e c5 55 03 3e
       0.26517695 0.21050973 0.21853347 0.12825687
000260 0e 37 7e be b1 ca 8c be b3 00 7d be ff 1a 41 3e
       -0.24825689 -0.2749839 -0.24707298 0.18857954
000270 67 55 0b 3e 46 0e 03 be 39 b1 6b be d0 7d 4a 3e
       0.13606797 -0.12798414 -0.23016824 0.19774556
000280 5b 90 05 bd de 54 59 3e ac 8e 6c 3d 8e f7 40 3c
       -0.03260837 0.2122378 0.05775325 0.011777772
000290 75 8c 46 ba f8 52 40 bd eb 60 1d 3e a2 aa 8d be
       -0.00075740303 -0.046954125 0.15369003 -0.27669245
0002a0 95 a5 05 be 44 70 95 be 60 a8 3a bc cc ea d0 bd
       -0.13051446 -0.29187214 -0.011392683 -0.10201034
0002b0 cc 92 9f 3d ba 93 14 3e 2f 5a b0 be 6d 69 b4 be
       0.07791671 0.14509478 -0.34443805 -0.35236683
0002c0 03 f4 8c bc bf 60 43 3e 51 a1 2b bd 35 12 a3 bd
       -0.017206198 0.19079874 -0.04190189 -0.07962457
0002d0 d6 60 8d bd a0 b6 3f bd c6 55 01 bf e8 dd a8 be
       -0.069032356 -0.046805024 -0.50521505 -0.329818
0002e0 d6 05 90 3d 5a f2 1a bd d1 3e a1 3a 39 fc dd be
       0.07032363 -0.03782878 0.0012302046 -0.43356493
0002f0 bd c2 15 3e 86 0b 03 be 78 97 08 bf aa 2d c0 3e
       0.14625068 -0.12797365 -0.5335612 0.3753484
000300 b2 01 18 be 6b 98 f8 bd f0 09 3e 3e 26 5d 67 3e
       -0.14844397 -0.121384464 0.18558478 0.22594127
000310 64 bb 96 3d 03 b7 15 be 3d a6 f8 be 5c 36 16 3e
       0.07359961 -0.14620595 -0.4856433 0.14669174
000320 f8 a3 1d 3f f5 cf 79 3d e2 d5 48 be 28 12 8f bc
       0.6157832 0.06098934 -0.1961284 -0.017464712
000330 a2 9e 15 bc cb 6e 48 3e 28 5e 56 3f e8 a6 6e 3d
       -0.009132059 0.19573514 0.8373742 0.058264643
000340 e8 36 84 be 28 ae 74 be a0 a4 04 3e 4a c6 94 be
       -0.2582314 -0.2389456 0.12953424 -0.29057533
000350 dc 34 d3 bd bc f5 2c be d0 f8 e0 3d fc f4 8c 3d
       -0.103128165 -0.16890615 0.10984957 0.068826646
000360 a7 34 d2 3d 7c a7 81 3e 43 e9 4b 3e 63 d2 04 bc
       0.10263949 0.25323093 0.19913201 -0.008106801
000370 18 a6 48 be 58 a3 7a 3e 5d c4 84 bd 28 fa 8c 3e
       -0.1959461 0.24476373 -0.06482766 0.27534604
000380 b7 ad 04 3e dd 3f a4 be 5d dc 91 bd 58 5e 90 3e
       0.12956892 -0.32079974 -0.07122109 0.2819698
000390 c0 cc 91 be 99 47 a7 bd 5b e8 11 3d ad 87 b3 3e
       -0.28476524 -0.08167953 0.035621982 0.3506445
0003a0 c7 a6 ca 3e d8 c9 c2 be cb 25 54 3e 24 17 92 bd
       0.39580366 -0.3804462 0.20717542 -0.0713332
0003b0 2e 4c 0b 3e 2f 72 fe 3d 09 f7 ca 3c 51 69 ff 3b
       0.13603279 0.124241225 0.024775999 0.007794537
0003c0 de 6e 26 3e 53 d6 af be 10 08 a6 be 84 ae 83 3d
       0.1625323 -0.34343204 -0.32428026 0.064297706
0003d0 48 82 27 bd 5e ac 11 be e8 03 06 3d be 44 67 3e
       -0.04089573 -0.14225909 0.03271857 0.22584817
0003e0 d8 f9 62 3e 2c 0f 33 3d 33 cf 09 3d 37 91 62 bd
       0.2216562 0.04371564 0.033644866 -0.05531427
0003f0 30 d2 b5 be bf 53 6c 3e e1 e1 14 be cb 63 ff bd
       -0.35511923 0.23078822 -0.14539291 -0.12470206

fc1.bias f4 [64]
000000 6f d2 aa 3b c0 32 18 3e 91 e4 c3 3e a7 76 84 3e
       0.005213074 0.1486311 0.3826032 0.25871775
000010 b9 1a b2 3e 61 4a 77 be f1 77 eb be 8b b8 92 be
       0.34786013 -0.24149467 -0.45989946 -0.2865642
000020 20 2e cf bc fd 62 45 be e5 67 bc be 41 88 4f be
       -0.025290549 -0.19276042 -0.36798015 -0.2026682
000030 ef 54 18 be 10 40 94 3e a3 87 8d 3e d0 e2 14 3e
       -0.1487615 0.28955126 0.27642545 0.14539647
000040 d6 f3 c1 be bd 3e 8e 3e 10 7e 0d be d6 ee 7e be
       -0.37881345 0.2778224 -0.1381762 -0.24895796
000050 6d 67 1c be bd ec 76 be c2 14 33 be 7a fc dc bd
       -0.15273829 -0.24113746 -0.17488387 -0.107903436
000060 b3 7d 47 be d5 7d 49 bf b3 fa 8a 3e 37 40 78 be
       -0.19481544 -0.7870763 0.27144393 -0.24243246
000070 08 bb 27 bc 15 6e 56 bd 7c 91 7d be 17 18 94 be
       -0.010237463 -0.052351076 -0.24762529 -0.2892463
000080 6f 0d 1e be d7 3e 4b be 71 dd fe 3d 2b f9 9b 3c
       -0.15434812 -0.1984819 0.1244458 0.019039711
000090 07 8a f0 bd 2c 60 8d be d8 24 16 bf 05 03 99 3e
       -0.117450766 -0.27612436 -0.5864997 0.29885116
0000a0 21 07 a6 be 3b b3 24 3f 3a 26 43 3d 50 24 d5 3d
       -0.32427314 0.64335984 0.047643878 0.10407317
0000b0 b0 e7 d8 3c 1d 8d ab be f4 85 2a 3f bd 03 a3 bc
       0.026477665 -0.33506098 0.66610646 -0.019899243
0000c0 4f 11 05 bf 9a 86 bf 3e 64 e5 a0 be 9a 23 07 bf
       -0.51979536 0.3740738 -0.3142501 -0.527887
0000d0 6a cb b2 3e 58 12 f2 be f2 d6 c7 bb ad 47 a5 3e
       0.34920818 -0.4727962 -0.0060986215 0.32281247
0000e0 fb 1e 5e bf 31 ff da be 79 a7 76 3e 0e f3 87 be
       -0.8676602 -0.4277282 0.24087323 -0.26552624
0000f0 58 3d 87 bd b5 c9 c4 be 94 e1 f0 3d a6 a7 38 be
       -0.06603497 -0.3843514 0.117617756 -0.18032703

fc2.weight f4 [128, 64]
000000 da 33 b9 3c ad 39 bf 3b ea 17 98 bd bc 65 80 3d
       0.022607733 0.005835733 -0.07426436 0.06269404
000010 95 2b dd bd 30 f3 96 3d c3 08 7b bd 64 5d 88 3d
       -0.10799328 0.07370603 -0.061287653 0.06658438
000020 b4 6a 10 3d 50 10 93 bd 8f 1f c4 3c d5 93 2c 3d
       0.03525801 -0.07180846 0.02394083 0.04213317
000030 cd 4a 81 3d d9 7b a9 3c 33 e0 ae bd 7a b9 91 3d
       0.06313095 0.020688938 -0.08538856 0.07115455
000040 c3 b8 fb bd 4f 78 aa bd e0 58 ac bd c3 10 cd bc
       -0.122911 -0.08323728 -0.08415389 -0.025032407
000050 96 39 57 3c a0 04 5c bc ea 4d 2a 3d 16 7e d3 bc
       0.013136288 -0.013428837 0.04157821 -0.025816958
000060 32 a7 c1 3d 9d 21 cf bc 04 a2 32 bd 16 c8 81 bd
       0.09455718 -0.025284583 -0.04361154 -0.063369915
000070 aa 8d 96 3d 22 6b 55 3d f8 4d 05 bd d3 c7 98 3c
       0.07351239 0.052104123 -0.03254506 0.018649971
000080 49 0e 9a 3d c3 7b 58 3b 2b 14 96 bd 47 bd 31 bd
       0.07522256 0.0033032752 -0.073280655 -0.0433934
000090 3d 7e 9e bd 4a 1c 99 bd 7b 69 05 bc f8 54 ea 3c
       -0.07738922 -0.07476099 -0.008142824 0.02860497
0000a0 4a 1f 1c bb 60 e3 e2 bc 48 c9 03 3d 5a 1d df bd
       -0.002382236 -0.027696311 0.03217438 -0.1089427
0000b0 46 58 df 3d a0 4f 9a bd c8 51 78 bd cb a7 dd bd
       0.10905509 -0.075347185 -0.060624868 -0.108230196
0000c0 3c de 9a bd 18 74 bb bd 9d 90 06 be 33 2c a0 bd
       -0.07561919 -0.091530025 -0.13141103 -0.0782093
0000d0 65 ab 3d 3d d5 9c fc 3d af c9 c6 3c 0d 0f 45 3e
       0.046306033 0.12334601 0.024266092 0.19244023
0000e0 14 c9 c8 3d 3c 36 27 bc 8b 4c 01 be 58 a0 50 3d
       0.098039776 -0.010205802 -0.12626855 0.050934166
0000f0 0c 4b 8e 3d 9e a2 d8 3b 2b 6c 51 bd 87 21 11 bd
       0.06947908 0.0066111824 -0.051128548 -0.035432365
000100 16 9c c3 bd c5 b6 70 3e 90 b0 01 3d c0 a6 b4 3c
       -0.095512554 0.23507221 0.031662524 0.022052169
000110 aa 4b c0 3d 1d fe e6 3d ff 12 cc 3d 8e 17 c3 bb
       0.09389432 0.11278937 0.09964561 -0.0059537357
000120 42 af f0 bd 3a f4 e1 3d 3a 5c 7a bb ae 6c fb 3c
       -0.11752178 0.11032911 -0.0038201944 0.030691471
000130 e4 d0 a2 bd 64 1b cd 3d d5 a1 86 3c e4 5a e9 bd
       -0.07949999 0.1001499 0.01643459 -0.11394289
000140 27 17 93 bd 0e b8 f6 3d 49 07 af bd fa eb fd bd
       -0.0718215 0.120468244 -0.085463114 -0.123985246
000150 2b 00 f7 bc 48 84 cc 3d 7b 9e 50 3d 99 92 97 bd
       -0.030151447 0.09986168 0.05093239 -0.07401008
000160 c5 b7 76 bc ad 53 87 3c 0e fa a0 bd 67 58 16 3d
       -0.0150584625 0.016519392 -0.07860194 0.0367054
000170 94 c3 82 3d 81 d7 9d bd 80 69 99 ba 93 b4 42 3d
       0.0638496 -0.0770712 -0.0011704415 0.04753549
000180 95 02 5e 3d aa f2 73 bd 4c 3b 4f bd 15 84 f9 3c
       0.05420168 -0.059557594 -0.05059366 0.03045849
000190 d3 01 54 3d 6a d6 d1 bd 82 e2 55 be c0 5e e7 3d
       0.051759552 -0.10245974 -0.20887187 0.11297369
0001a0 a2 af d9 3d 62 52 6b bc 2f a9 a8 3d e3 96 c0 3c
       0.106292024 -0.014362903 0.08235394 0.023509448
0001b0 24 ff 25 3d ac 33 6a 3d 7a 22 f0 3e 55 d3 10 bd
       0.040526524 0.057178184 0.46901304 -0.035357792
0001c0 87 7c 82 3d df d5 cd bd a1 40 71 bd ad 93 d6 3d
       0.06371408 -0.10050558 -0.058899526 0.10477386
0001d0 d2 85 37 bd e3 a2 b3 3d 58 e7 74 bd 85 e5 a2 bd
       -0.044805355 0.087713026 -0.05979094 -0.079539336
0001e0 e4 7a 98 bd 6a 81 83 bd ab de da bd 6e 42 92 bd
       -0.074453145 -0.06421168 -0.10687002 -0.07141577
0001f0 34 67 9a 3c aa 06 ad bb d1 ce 7a 3d 36 62 b3 3d
       0.01884804 -0.0052803354 0.06123239 0.087589666
000200 f6 4e f0 3d 56 5a 00 be e7 52 c6 bc dc fa 20 bd
       0.117338106 -0.1253446 -0.024209453 -0.03930174
000210 74 57 d0 bd 8f 38 04 be 98 e4 4b 3d 8b 26 33 3c
       -0.1017293 -0.129122 0.04977855 0.010934482
000220 ba f3 b7 3d 37 42 80 bd 27 32 82 bd f8 be a9 3c
       0.08982034 -0.062626295 -0.06357222 0.020720944
000230 76 6a c8 3d bb f2 85 3c 2b 27 b7 bd a0 88 1e 3c
       0.09785931 0.016351094 -0.089430176 0.009676129
000240 00 ba bc bd cf 1b 53 3d f1 59 d5 bd c9 ce 39 bd
       -0.09215164 0.051540192 -0.104175456 -0.04536322
000250 be f9 ae bd 78 d8 c9 bd d4 3b e2 bc ac 40 ad 3c
       -0.08543728 -0.09855741 -0.027616419 0.021149002
000260 ff 6b 5e bd de 33 d3 3d 28 6c d4 bc 17 8b ef 3d
       -0.05430221 0.10312627 -0.02593048 0.11696451
000270 f3 45 4f bd 54 38 24 bd 98 ca ed 3d 10 41 d3 bc
       -0.05060382 -0.04009278 0.11610907 -0.02578786
000280 1e 46 17 3d c1 36 cd bd a1 e0 bc 3c eb b4 94 bd
       0.036932103 -0.10020209 0.02305633 -0.0726107
000290 14 aa 06 bc e2 0b db bd ee 67 72 bd 80 f8 25 bb
       -0.008219261 -0.10695626 -0.059181146 -0.002532512
0002a0 6e 62 9c 3d 59 b8 74 3d 8c 06 ba bd 60 b4 ca 3d
       0.076359615 0.05974612 -0.0908328 0.09897685
0002b0 80 d4 b7 3d f8 d4 3c bd a3 59 60 3e f0 bb 7f 3d
       0.08976078 -0.04610154 0.21909194 0.06243509
0002c0 bf 54 52 3d 96 c0 01 3d 20 02 cf 3c 92 24 05 3e
       0.05135035 0.031677805 0.025269568 0.13002232
0002d0 89 fb c2 bd 00 a5 dc bd 25 41 ba 3c b2 9b 03 3e
       -0.09520633 -0.10773659 0.022736141 0.12852362
0002e0 d9 38 98 3d 83 a9 4c 3d ec 86 53 3d b2 64 f2 3d
       0.07432718 0.049966346 0.051642343 0.11835612
0002f0 5f b2 a5 3d 50 6f cd bd 10 51 65 3d 87 05 bb 3d
       0.08090662 -0.10030997 0.05598551 0.09131914
000300 5e bd c8 bd e4 1a af 3e 1c 66 b8 3d 46 2f 91 3d
       -0.09801744 0.34200203 0.09003851 0.07089095
000310 d4 9f 22 3c d9 e7 b9 bd 9f a1 d2 3d 9e be 80 3a
       0.009925801 -0.090774246 0.10284733 0.0009822433
000320 8c 6b 6a bd 8e c4 08 3d 19 f7 88 bc fa ab c1 3d
       -0.05723147 0.033390574 -0.016719388 0.0945663
000330 b9 a6 d5 3d 49 c1 8b 3c ed d6 10 bd 14 f4 48 3d
       0.104321904 0.017059939 -0.03536122 0.049060896
000340 79 73 89 3b 41 15 1c bd b7 65 0f bd e6 58 8d bd
       0.0041946736 -0.038106207 -0.035009112 -0.06901722
000350 2f 5c d4 3d 34 e5 9b 3d 64 d5 c8 bd fa 47 23 bd
       0.10369145 0.076120764 -0.09806326 -0.039863564
000360 1b a5 65 bd 69 41 01 be 6c 6f a3 bd 84 97 2b 3d
       -0.05606566 -0.12622608 -0.079802364 0.041892543
000370 d4 e9 0e be 17 28 29 bd 4e 35 93 bd c0 57 c4 bd
       -0.13956386 -0.041298 -0.071879014 -0.095870495
000380 1d 55 a5 3d 44 56 47 3d e3 95 00 be 38 c0 c4 3d
       0.08072875 0.048666254 -0.12557177 0.09606975
000390 e6 60 04 be de a0 ef bd d9 45 d3 bc 54 96 f8 bd
       -0.12927589 -0.11700605 -0.025790142 -0.12138048
0003a0 14 fd dd bd 74 93 3d 3d bf bd 57 bd 33 06 80 bc
       -0.108392864 0.0462832 -0.05267119 -0.015627956
0003b0 d6 6b fd 3d f5 83 19 3d 94 aa c0 3e ef ed e1 bc
       0.12374084 0.03747936 0.3763014 -0.027579276
0003c0 d2 d5 e2 3d a1 85 b9 bc 8b 04 a6 3d 1a a7 92 3d
       0.11075939 -0.022646727 0.08106335 0.07160778
0003d0 b4 75 d3 3d 09 44 cf bd 82 0c ad 3d 62 81 18 3c
       0.103251845 -0.101203986 0.08449651 0.009308191
0003e0 31 1f d8 bc 03 e9 30 3d 6e 87 2c bd 2a 4c 9d bd
       -0.02638206 0.043190967 -0.042121343 -0.07680543
0003f0 57 56 92 3d b5 62 cd bd f4 ce c0 bd 07 8f d0 bd
       0.07145374 -0.100285925 -0.09414473 -0.1018353

fc2.bias f4 [128]
000000 2e 63 6d bd d3 80 0f bc cf f2 8c 3d 0d 30 24 3d
       -0.057955913 -0.008758741 0.068822496 0.040084887
000010 86 39 a6 3e ba 12 84 3e de 29 a7 be fb 65 bf be
       0.32465762 0.25795537 -0.3264913 -0.37382492
000020 61 d4 14 bf d5 82 fc 3d b8 f1 ee 3e 7c 4c 84 be
       -0.58136564 0.12329642 0.46668792 -0.25839603
000030 3d 14 09 be 9c 9b 07 bd 05 a1 13 3e b6 c1 0a bf
       -0.13386627 -0.033107385 0.14416893 -0.5420183
000040 61 d6 88 bd af 59 dd 3c 5a ca 24 3e 0b 43 04 be
       -0.066815145 0.027020304 0.16092816 -0.129162
000050 36 5d df be 33 d4 9f 3e bd 5b 79 be a7 5f 0b 3f
       -0.43625802 0.31216583 -0.24351402 0.5444283
000060 30 95 c3 bc f0 5f 06 be 05 df 01 be 08 07 a7 3d
       -0.02387485 -0.13122535 -0.12682731 0.08155638
000070 81 7d 44 3f 3a d7 0e bf 4e f9 3e 3d 60 06 b0 3e
       0.76754004 -0.5579716 0.046624474 0.34379864
000080 72 83 4f 3e c1 8c e4 3e 19 91 1f be 43 2a bf 3d
       0.20264986 0.44638637 -0.15582694 0.09334233
000090 fe cf 0a 3f b7 bf 19 be d0 54 2a 3f 1f 9f 58 3e
       0.5422362 -0.1501454 0.66535664 0.2115445
0000a0 90 56 6f be 61 af e8 be 68 9d 22 bc f2 61 b7 bd
       -0.23372865 -0.45446303 -0.009925224 -0.089542285
0000b0 f3 48 1f bf bc 24 9d 3e 6d fe d3 be f8 23 b8 bc
       -0.62220687 0.3069209 -0.4140505 -0.022478089
0000c0 9e 8a 03 3e e7 d8 aa be 85 93 87 3d a3 7b 2f 3d
       0.12845847 -0.33368608 0.06619934 0.04284252
0000d0 3a 0a 68 3e 16 5e df bd ee ec 51 be a2 8d e7 be
       0.22660151 -0.10906617 -0.20500538 -0.45225245
0000e0 03 49 e6 bd 8d 16 b9 be 56 93 c7 bd b0 0b cc 3e
       -0.11244395 -0.36150017 -0.09744899 0.39852667
0000f0 3d 53 15 be 30 7a 54 be 16 11 ab be 4d a0 1a 3f
       -0.14582534 -0.20749736 -0.33411473 0.6040085
000100 dc 1d 13 3f f9 58 82 bd da af 13 be 59 49 de be
       0.57467437 -0.063646264 -0.14422551 -0.43415335
000110 b6 a9 5b 3e 88 b6 bc 3c 10 01 cc bc 7c 8e 8b be
       0.21451458 0.023036256 -0.02490285 -0.27257144
000120 d3 8c ae 3e c4 d8 7b 3d 6b 8d 70 be 04 ab 0d be
       0.34091815 0.06148602 -0.23491447 -0.13834769
000130 93 da 5d 3d 9d 6c d7 bd 23 78 90 3d 87 56 3a be
       0.054163527 -0.10518763 0.07054164 -0.1819707
000140 65 f3 48 bd 39 95 78 3c 94 ee 43 bd f2 35 28 3f
       -0.049060244 0.015172296 -0.047834948 0.65707314
000150 3a f7 90 bd ac d1 fd bd ac 23 7c be 48 af 2b be
       -0.07078405 -0.12393507 -0.24622983 -0.16766083
000160 67 f9 1d be a5 94 fe 3c 98 cf c9 bd 5d 5c 9e bd
       -0.1542717 0.031076739 -0.098540485 -0.07732461
000170 75 02 b7 3a f9 44 a6 3e af 41 0c 3e 78 1f 1b 3e
       0.0013962524 0.32474497 0.13696931 0.15148723
000180 a0 4a 24 bf 5b 81 81 bc 4c d0 5a 3d b8 4d 0a 3e
       -0.6417637 -0.015808752 0.053421304 0.1350621
000190 bc d4 e1 bd 82 b9 f1 bd 7a bb 69 bd 0d 8d 81 3c
       -0.11026904 -0.11802961 -0.057063557 0.015814329
0001a0 d4 12 8c be 00 97 ec be b0 5a ca be 90 e5 d8 be
       -0.27358115 -0.46208954 -0.39522314 -0.42362642
0001b0 02 e1 17 bf e2 eb 40 be 5c 3a ab be 12 37 55 bd
       -0.5932771 -0.18839982 -0.33442962 -0.052054472
0001c0 be 78 f6 3e 52 7f 8e bd 5b c6 25 3e ff fa ef be
       0.48138994 -0.06957878 0.16188948 -0.46871182
0001d0 e0 43 a8 3d 1f 60 ac bd 13 f8 da 3e a6 f7 2a 3f
       0.08216071 -0.08416771 0.4276739 0.6678413
0001e0 9c 47 b6 3d 77 c4 2c be f9 30 a1 bd d2 ea 45 bd
       0.08900377 -0.1687182 -0.07870669 -0.048319645
0001f0 ae 34 a6 3e f5 1a ad be d6 ae ce 3d a1 d1 86 be
       0.32462066 -0.3380963 0.10091941 -0.2633181

fc3.weight f4 [64, 128]
000000 04 40 04 3e e6 4b bf 3c 8f c6 4c 3c 34 be b3 bc
       0.12915045 0.02335162 0.012498512 -0.021941282
000010 90 f3 88 bd 27 49 4b bd f2 8f 84 3c 3c 76 bf 3d
       -0.06687081 -0.04963031 0.01618192 0.09348723
000020 b9 23 a9 bc 58 d1 37 3d 64 a0 7e bd c7 19 0b 3c
       -0.020646917 0.04487738 -0.06216468 0.0084900325
000030 45 8f 9e 3c 78 8e a6 bb 1e 3d 74 3d 46 78 b6 bd
       0.019355426 -0.0050829016 0.0596286 -0.08909659
000040 99 7e 2e 3d 8f b8 a4 3d d1 4d 41 bd 9a 51 99 3c
       0.0426012 0.08043014 -0.047193352 0.018715668
000050 e1 32 f3 3b c8 fb 99 bd 8a e1 40 3d 46 0f 36 3c
       0.0074218367 -0.075187266 0.04709009 0.01111204
000060 e3 45 ef bd 7f 17 c5 bd d4 b4 a1 bd 80 d1 85 3c
       -0.11683252 -0.09623622 -0.07895818 0.016335249
000070 30 f3 20 bd 13 4b 05 3b c6 ff 0c 3d 45 f1 63 bd
       -0.03929442 0.0020338937 0.034423612 -0.055650014
000080 de 8d 9b 3c 83 8c de bb 3d 1f b4 bd c5 03 58 3d
       0.018988546 -0.0067916526 -0.08795021 0.05273797
000090 c7 4e 64 3d a7 3e 4a bd 3b 2a 4a 3d bc 23 1a 3c
       0.05573919 -0.049376156 0.04935668 0.009407934
0000a0 fe 40 02 3d a6 10 28 3d 79 24 ba bd c1 65 0b bd
       0.031800263 0.041031502 -0.09088988 -0.034032587
0000b0 76 3b 0c bc 31 1c 41 bd 35 29 86 bd b9 85 e0 bc
       -0.0085590985 -0.047146026 -0.06550828 -0.027407514
0000c0 8d c3 ec bd c3 9f b9 3b 87 6e b1 3c 34 d1 43 3d
       -0.11560736 0.005664797 0.021659149 0.047806934
0000d0 a6 52 a4 bd be 8e 9a 3d 96 f2 31 bd a0 3f b4 3a
       -0.080235764 0.07546757 -0.04344424 0.0013751872
0000e0 82 35 c6 ba e2 07 48 bd 78 33 bb bd d3 18 f2 bd
       -0.0015122148 -0.048835643 -0.09140676 -0.11821141
0000f0 a3 15 69 3d fc 90 47 3c d0 4a 5f 3c 78 6f 89 bc
       0.0569054 0.012180563 0.0136286765 -0.016776785
000100 f5 42 a5 bd ac 66 00 3d d6 36 85 3d f1 9e 9a bb
       -0.08069412 0.031347916 0.065046 -0.0047186543
000110 59 fd 0e bd cb 4a a1 3d 44 8e b1 bd 72 11 c2 bd
       -0.03490958 0.07875594 -0.08669713 -0.09475984
000120 16 ca 41 3d ec 18 1f bc 09 d7 46 3d 45 8b 5e bd
       0.047311865 -0.009710532 0.048544917 -0.054332037
000130 e9 64 03 bd 9b 81 e9 bb b1 0a 85 3d ec a4 77 bd
       -0.032078657 -0.007126046 0.0649618 -0.060460016
000140 47 0b 31 bc 49 d2 6f 3c 8c e3 da bd 8b ea 5f 3d
       -0.010805911 0.014637538 -0.10687932 0.054667037
000150 f8 8d ac bd 6b 2f f5 3c 73 63 30 bd c2 ca cf bd
       -0.08425516 0.029929837 -0.043063592 -0.10146095
000160 08 61 ed 3c 25 88 4b bd ae a7 89 bd 64 78 44 3c
       0.028976932 -0.049690384 -0.067214355 0.011991594
000170 83 d6 4b bd 2b 35 e7 3c fd 23 9c 3d b7 b2 0a 3c
       -0.04976512 0.028223595 0.07624052 0.0084654605
000180 73 a8 f6 3c c7 ec 53 bd c7 91 5c bd 86 b7 87 bc
       0.03010962 -0.05173948 -0.05384996 -0.016567003
000190 f7 fc 94 bb 24 8b ac bd 0a 0a 87 bc 25 f0 b9 bd
       -0.0045467573 -0.084249765 -0.01648428 -0.09079007
0001a0 b1 ab aa bd 7d a2 1b bd 10 0f e2 3c 9b 00 27 3d
       -0.08333529 -0.037996758 0.027595073 0.04077206
0001b0 6a d9 fa 3c ab d1 53 bd c4 fb 6a 3d e3 22 ac bd
       0.03062125 -0.051713627 0.05736901 -0.084050916
0001c0 74 79 43 3c 35 ab 67 bc b4 ee 73 3c 59 ad b1 bd
       0.011930812 -0.01413994 0.014888454 -0.086756416
0001d0 69 87 4d 3c 49 b2 78 3b 44 53 a8 3d 6a 5f de 3d
       0.012544491 0.0037948063 0.08219007 0.108580425
0001e0 1c 69 1f 3d be 10 62 3d 2e e1 1c 3d 5c 5e a0 bc
       0.0389186 0.055191748 0.038300686 -0.019576244
0001f0 da 67 8e bd 7f f8 83 3d ad 65 0d 3d ad ee 1d 3d
       -0.06953402 0.06443881 0.034520794 0.038557697
000200 3b 6d 4c bd cd 7f b5 bd 22 02 a6 bd 06 18 18 bd
       -0.049908858 -0.08862267 -0.081058756 -0.037132286
000210 f8 53 aa 3d 3b a9 9a bd ea f8 7e bd 53 3e 6e 3d
       0.08316797 -0.075518094 -0.0622491 0.058164906
000220 d0 7a 8e bd a3 20 14 3d 4f 12 81 bc a6 cf 50 bd
       -0.069570184 0.036163937 -0.0157558 -0.05097928
000230 37 72 63 3d d7 1f fa bb 3a a9 be bb ab 32 3b bd
       0.055528846 -0.00763319 -0.005818513 -0.045702618
000240 fe 6d b2 bd 79 ee 80 bc 39 75 d8 3c 81 a7 e8 bc
       -0.087123856 -0.015738713 0.026423084 -0.028400185
000250 20 2a 2a 3d 4b 7d 41 bd a7 6e ac 3c bb 78 00 3d
       0.04154408 -0.04723863 0.021048857 0.031365138
000260 ac e0 07 3e 15 f4 e4 bc e8 51 8d 3d c7 14 5b bd
       0.132693 -0.027948419 0.06900388 -0.05348661
000270 a7 50 05 bd b0 a8 c6 bd 18 c5 31 bd 3b 11 87 3c
       -0.03254762 -0.09700143 -0.043400854 0.016487708
000280 6b 3f f0 3b 84 06 04 3b 0c dc 89 bd 23 5d 26 3d
       0.0073317788 0.0020145485 -0.06731424 0.040616166
000290 e7 28 af bc b2 49 bd bd 67 d9 57 3c 8b c1 79 3d
       -0.021381808 -0.09242572 0.013174391 0.060975593
0002a0 29 37 71 3d 85 db f3 3c 81 c8 19 3d 41 a7 8b bd
       0.058890495 0.029767761 0.03754473 -0.068190105
0002b0 b0 fe a2 bd 14 97 8a bd 1f 7c 9f bb 49 b3 4c bd
       -0.07958734 -0.06767097 -0.0048670913 -0.049975667
0002c0 2f db 56 bd a1 e1 99 3d 47 43 bb 3a e3 25 da bc
       -0.052455124 0.075137384 0.0014287018 -0.026629394
0002d0 ed 27 5b 3d 58 cd 05 bd 51 35 8c 3d 4b a7 ac bd
       0.053504873 -0.032666534 0.06846107 -0.08430346
0002e0 92 ac a4 bc bf 60 d1 bd 88 cb 38 bd f4 11 d1 bd
       -0.02010182 -0.10223531 -0.045115978 -0.102085024
0002f0 b9 84 94 3d e3 85 e9 bc 2b d3 3e bd 34 aa eb 39
       0.07251877 -0.028506225 -0.046588104 0.00044949504
000300 7f 90 9d bd 66 bd 96 3c a3 b1 16 3c 4a b7 36 3d
       -0.07693576 0.01840086 0.009197625 0.04460839
000310 53 59 6a 3d e1 06 df bc a5 61 c3 bc 9a b1 c1 bd
       0.057214092 -0.02722496 -0.023850271 -0.09457703
000320 9b 91 69 bd c7 4a 3b bd fb c3 9b bd 45 7a a7 bd
       -0.057023626 -0.04572561 -0.0760574 -0.08177618
000330 77 75 29 bd c6 c4 82 bd 70 54 8f bc f6 f8 85 3d
       -0.04137179 -0.06385188 -0.017496318 0.06541626
000340 8f ee a3 bd 8d 34 c7 3c 35 d9 86 bc a5 95 8a 3d
       -0.08004486 0.02431705 -0.016460994 0.06766824
000350 4f 37 c9 bc 32 9c 8a 3c 12 c8 2a 3d 0d 69 42 bd
       -0.024562506 0.016920183 0.04169471 -0.047463465
000360 f3 10 9d 3d df 14 c0 3d ad e1 45 3d 43 80 6d 3d
       0.076692484 0.09378981 0.048310924 0.057983648
000370 2d 71 d2 3c 01 e2 82 bb 66 d7 9d 3c b7 31 e0 bb
       0.025688732 -0.003994227 0.019267749 -0.006841864
000380 e4 e2 fd bc 1d 01 24 3d 62 2f 17 3d 2f 6f b8 bd
       -0.030991979 0.040040124 0.036910422 -0.090055816
000390 c7 39 2b 3d 04 89 9f 3b 64 d6 b5 bb 59 07 57 bd
       0.041803148 0.0048686285 -0.005549239 -0.05249724
0003a0 7f 9b 63 3d 96 93 87 bd 9c 0c 15 3d 37 d8 8f 3d
       0.055568215 -0.06619947 0.03638898 0.070236616
0003b0 87 c6 d8 3c 97 77 a1 3c 34 ee 1b bc ee 1f 19 bd
       0.026461853 0.019710345 -0.009517241 -0.037383966
0003c0 79 c7 97 3c 53 08 c2 3c 76 56 7c bc af e1 1e bd
       0.018527733 0.02368561 -0.015401473 -0.038789447
0003d0 82 1b b5 bd 3a 81 8e bd d7 b9 7c 3d 27 ed 99 bd
       -0.08843137 -0.06958242 0.06170067 -0.07515936
0003e0 31 93 42 3d bc 88 1f 3c fc 0d 7c bd ca 14 83 3d
       0.047503654 0.00973719 -0.061536774 0.064004496
0003f0 e6 a7 41 bd ac 74 98 3c 60 88 c8 3b e9 30 87 3a
       -0.04727926 0.018610321 0.006119773 0.0010314259

fc3.bias f4 [64]
000000 ed e0 d5 3d 7b fd d9 bd 3f ca 49 3e fa 7d 66 3c
       0.10443292 -0.10644051 0.19706057 0.014068121
000010 72 c5 9b bc 0e aa 9d be 77 ca cc be 93 e4 33 bc
       -0.019015048 -0.30793804 -0.39998218 -0.010979789
000020 ae 11 a8 3d 09 3e 9a be 9b 40 09 3f 66 60 c7 be
       0.08206497 -0.30125454 0.53614205 -0.38940734
000030 00 e5 d7 be 1f 96 bb bc 9c 43 92 3e 0b 84 4f be
       -0.421669 -0.022898732 0.28567207 -0.20265214
000040 e2 b9 b6 be f3 fc e7 bc 25 45 4c bd 3f e3 8a 3e
       -0.35688692 -0.028318858 -0.04987063 0.271265
000050 44 7d 1f bd 3c 75 d8 3e 36 1a 08 be 0e 11 a6 bd
       -0.038937822 0.42276943 -0.13291249 -0.08108722
000060 e7 61 b7 be 10 46 72 bd 6d 29 c1 3d 0f 15 d7 be
       -0.3581688 -0.059148848 0.094317295 -0.42008254
000070 f4 cc c1 3e 28 df 58 3d 41 dc fe 3e e7 50 9a be
       0.3785168 0.052947193 0.49777415 -0.3013985
000080 ea 23 1f be 00 a0 c4 bd 56 75 fc 3c 0c f1 a1 be
       -0.15541044 -0.0960083 0.030817669 -0.31629217
000090 64 1a 2f bf 9b 76 24 bd 8b c0 b6 be b9 cd d1 3e
       -0.68399644 -0.040152173 -0.35693774 0.40977266
0000a0 4f 95 c8 3c 88 df de 3c a4 be 74 bf 2c 58 bb 3d
       0.024485258 0.027206197 -0.95603395 0.09147677
0000b0 c7 71 aa be 0e 8d 16 bc 15 ca 84 3e b5 b5 d9 3e
       -0.3328993 -0.0091889035 0.25935426 0.42521444
0000c0 b3 88 6f bd 61 5d c5 3e be ae ee be aa 57 9b bd
       -0.058479976 0.38547805 -0.46617693 -0.0758508
0000d0 67 21 80 bc 95 19 b7 3e fe 09 6e be 5a 18 59 3e
       -0.015640927 0.35761705 -0.23245999 0.21200696
0000e0 b1 41 d2 3e 63 29 be 3d 87 71 20 bd d7 35 fd be
       0.41065744 0.09285238 -0.039170768 -0.4945514
0000f0 33 a4 a5 be f9 d7 ae be d3 4c 7d bd 2e 64 2e be
       -0.32351837 -0.3414915 -0.061840843 -0.17030403

out.weight f4 [2, 64]
000000 36 4f 9f 3d e6 ee 7c bd fa 93 dc 3d 43 ee 05 3a
       0.0777878 -0.06175127 0.10770412 0.0005109051
000010 84 28 38 bd f9 f1 4e bd f0 7f 90 3c bf b8 d3 bd
       -0.044960514 -0.05052373 0.01763913 -0.10337972
000020 6e 50 27 bd b6 fd 4a bd dd 5a cb 3d 9e 84 2c bd
       -0.040848188 -0.049558364 0.0992944 -0.04211866
000030 0c 28 29 bd 94 df 92 bd a2 a2 c4 3d f8 a0 c1 bd
       -0.041297957 -0.071715504 0.09601332 -0.094545305
000040 9f bc ee bc 4b a8 53 bc 6c 97 a7 bd bd 18 1d 3c
       -0.029142676 -0.012918542 -0.08183178 0.009588418
000050 6d fe c2 bd da 3c c7 3d db e1 a5 bd 35 34 80 bd
       -0.09521184 0.097284034 -0.08099719 -0.06259958
000060 83 29 8e bd 0f 06 eb bc e8 74 b4 3d 8c b6 fc bd
       -0.069415115 -0.028689412 0.088113606 -0.123395056
000070 d7 db 9c 3d 6b ac d3 bc 95 d1 c5 bc e0 5b c8 bd
       0.076591186 -0.025839051 -0.024147788 -0.09783149
000080 74 73 7a bd e9 2c 9c 3d 62 e6 ec 3c c2 8e e4 bd
       -0.06114526 0.076257534 0.028918449 -0.111600414
000090 54 16 07 be d9 9d c1 bd 46 56 a2 bd 83 89 f7 3d
       -0.13192111 -0.09453935 -0.079266116 0.12086775
0000a0 17 06 d0 3d 7b 1a b1 3d f3 6d 7c bd 15 1a 88 3d
       0.101574115 0.08647629 -0.061628293 0.066456
0000b0 f1 c4 35 bd 8e ef 0a 3d 9e 78 7f 3d db 70 a8 3d
       -0.04437727 0.033919863 0.06237089 0.082246505
0000c0 86 32 b3 3d 3a 2b 30 3e d1 ed f2 bd 1b ca 68 bd
       0.08749871 0.1720399 -0.11861766 -0.056833368
0000d0 57 ec 93 bd 9c e5 d5 3b 60 e4 b6 3d 91 e5 fe 3c
       -0.072228126 0.0065276157 0.08930278 0.031115325
0000e0 0b c1 cb 3d 67 6e bf bc a0 9b cf bd f9 d1 00 be
       0.099489294 -0.023368074 -0.10137105 -0.12580098
0000f0 82 79 3f 3c a0 2b b0 bd 10 cf 4e 3d 93 15 5d bd
       0.011686685 -0.08602071 0.05049044 -0.053975653
000100 58 03 77 3d 28 b6 c2 3d 05 58 ab bc 54 0f 9d bc
       0.060305923 0.095074 -0.020915994 -0.019172348
000110 b4 79 03 3d 8a 53 37 3d 7b 39 60 3d 96 32 18 bd
       0.032098487 0.044757403 0.054742318 -0.037157618
000120 2f 14 73 bd 30 33 3b 3d ac 5c 51 3d 53 7d 12 3c
       -0.05934542 0.045703113 0.05111377 0.008941012
000130 70 e9 3b 3d 83 98 23 bd 5a be e3 bc eb 4e 8b bd
       0.04587692 -0.03994037 -0.027800728 -0.06802162
000140 0a 18 24 bb 1d 8c c3 3d b8 f0 b4 bd fe 67 38 bd
       -0.0025038742 0.09548209 -0.08834976 -0.04502105
000150 61 65 bf bb 48 06 14 bd a3 7b 1b bd 77 b4 46 3d
       -0.0058409427 -0.036138803 -0.037959706 0.04851195
000160 73 20 47 3d 08 20 ae 3d af 6f f1 bb 75 48 96 3d
       0.04861493 0.08502203 -0.00736805 0.07338039
000170 86 e5 93 bd d2 c3 fb bc 0c f0 a4 bd 38 ac de 3d
       -0.072215125 -0.030733023 -0.08053598 0.10872692
000180 ac 0d 90 3b f9 fd c4 3d 99 d5 c6 3d f2 78 7b 3d
       0.004396161 0.09618754 0.09708709 0.06139464
000190 11 86 17 3c f1 bf c7 3d 03 73 00 bd 5e da d5 bd
       0.0092482725 0.09753407 -0.031359684 -0.10442041
0001a0 bb e0 d8 3d 07 85 eb bd 1a ca 01 3d 1a 8a 80 bc
       0.10589739 -0.11499982 0.03168688 -0.015690852
0001b0 8f 4e 1a 3d 6a ce 69 3d 4f 1b 3e bd f0 02 8b bd
       0.037672576 0.057081617 -0.046412762 -0.0678767
0001c0 13 24 43 bd 75 b9 d5 bd 28 c4 3b 3d d9 9c 8c 3d
       -0.047641825 -0.10435764 0.045841366 0.06865854
0001d0 db 9e df 3d 98 3b a4 bd 85 04 cd 3d 86 e7 94 bd
       0.10918971 -0.08019179 0.10010628 -0.07270722
0001e0 e9 02 dc bd d5 cd 09 bd a8 41 a4 bd 69 65 8e bd
       -0.107427426 -0.033643562 -0.080203354 -0.06952936
0001f0 d8 76 47 3d aa 78 ef 3d 9e ce 80 bd 70 2e 9d 3d
       0.048697323 0.11692937 -0.06289409 0.07674873

out.bias f4 [2]
000000 51 5b bb 3e 79 eb ec be
       0.36593106 -0.462734
