best_model_weights.pt (torch, 320370 bytes, 26 tensors)

fc1.weight f4 [128, 8]
000000 b9 d9 06 be 18 62 1d be f2 41 54 3e 49 76 cc bd
       -0.13168992 -0.15369451 0.20728281 -0.099834986
000010 72 8b 99 3e 5b 6d 97 bd b3 ac 54 3d b6 77 e4 3c
       0.299892 -0.07393905 0.05192251 0.027889114
000020 11 18 8c bc 76 e8 53 be fe 89 ff 3d ec 17 9c bd
       -0.01710132 -0.20694146 0.12477492 -0.0762175
000030 41 a3 fd bd fe ce db 3b b4 d3 9e 3e 93 8f 1b be
       -0.12384654 0.006708025 0.31020892 -0.15191488
000040 7a 4d 4a 3d 03 19 2c be 61 96 aa 3e 39 0e e3 bd
       0.049390294 -0.16806416 0.33317855 -0.11086697
000050 c7 ee 94 3e 70 57 f7 bd ec c5 b1 3d 22 0b 3e 3c
       0.29088423 -0.12077224 0.08680329 0.011599334
000060 fb 9b 07 3e c1 cb b7 be f5 09 89 3d f7 1c b3 be
       0.13243096 -0.3589764 0.06691352 -0.34983036
000070 0e 81 a1 3d dc cf 84 be 9f 98 83 3e f8 2b dd bd
       0.07885943 -0.25939834 0.25702378 -0.10799402
000080 eb da 61 3e d8 4c 21 3e cb df b6 3e 1c d6 fe bd
       0.22056167 0.1575197 0.35717615 -0.12443182
000090 16 7e 92 be b4 b3 8d 3e 67 31 0d be 24 64 8a be
       -0.2861182 0.27676165 -0.13788377 -0.27029526
0000a0 b3 75 d0 3d 88 5b 51 3e cf f3 7d bd e0 60 0e be
       0.10178699 0.20445073 -0.062000092 -0.13904142
0000b0 ea ec f2 3d 09 38 b0 bd a7 8c 3f be 9b a7 05 3c
       0.11861594 -0.08604438 -0.18705998 0.008157636
0000c0 4b 4f 90 bc ef 7e 9f be df 5e ae 3e 15 4d c3 bd
       -0.017615935 -0.3115153 0.34056756 -0.095361866
0000d0 c5 03 a8 be fa 3c 0b be 38 79 98 be 5e 39 a9 3d
       -0.32815376 -0.1359748 -0.29779983 0.08262895
0000e0 b8 22 4e be eb 3c 80 3e 0c 29 3b 3e ec da ff bc
       -0.20130432 0.25046477 0.18277377 -0.03123232
0000f0 4c 96 48 3d 28 6c 35 3e 4b dd d3 3d 9a 72 7d 3e
       0.04897146 0.1771704 0.10344943 0.24750748
000100 b7 2d 82 bd 7b d4 64 be 72 df 0f be 38 5d d4 bc
       -0.06356376 -0.2234668 -0.14050081 -0.025923356
000110 c7 76 a4 bc 96 42 30 3e 29 97 af 3c 5d 12 c7 3d
       -0.020076169 0.172129 0.021434383 0.097202994
000120 1d fe 68 3b 51 74 7e 3e 02 9a 55 be 0d 1a 8a bc
       0.0035551854 0.24849059 -0.2085953 -0.016858125
000130 56 82 a9 3e 64 73 47 be 1c e7 a1 3e a2 b1 ae 3e
       0.3310725 -0.19477612 0.31621635 0.34119898
000140 02 ca ab bd fd e9 be 3e 81 ed a4 3c 3d 80 d6 3d
       -0.08388139 0.37287894 0.020132782 0.10473678
000150 25 a3 a0 be ed 1b 47 3e 3c de 8c be 52 ad a8 3e
       -0.3137447 0.19444247 -0.275133 0.32944733
000160 35 6c 2a bd 0c a1 4b 3e c9 02 85 3e e1 f5 08 3e
       -0.0416071 0.19885653 0.25978687 0.13375045
000170 ea b1 a5 3e fa 36 c8 bd e1 52 8b 3e ec 59 ad 3e
       0.323623 -0.09776111 0.2721167 0.33857667
000180 62 0d 2f 3e 6c 39 a0 3e ee 70 74 be 6a c9 82 bd
       0.17094949 0.3129381 -0.23871204 -0.06386073
000190 2c 62 a5 3b ea e6 ae be 5a 90 7b bd a1 0a a5 3e
       0.0050471034 -0.34160548 -0.06141696 0.32234672
0001a0 2c 4a 8e be 2a 23 53 be f8 d2 80 be cf de 1e 3e
       -0.27790964 -0.20618883 -0.25160956 0.15514682
0001b0 b7 11 93 3e cc 8e c6 be 21 87 a5 bd 26 8e b2 3d
       0.28724453 -0.3878082 -0.080824144 0.08718519
0001c0 ad bf 1e 3e 1d a4 aa 3e e5 3b b7 3d 29 7c 10 3d
       0.15502806 0.33328333 0.08946971 0.03527466
0001d0 36 30 62 3e 1d e9 7c be ac 67 89 be 0c 3f c4 3d
       0.22088704 -0.246983 -0.26836908 0.09582338
0001e0 d5 80 98 be ec 6a 10 be f9 7f 9e be eb 15 da bc
       -0.2978579 -0.14103287 -0.3095701 -0.02662178
0001f0 70 15 47 be 34 0b b2 3e 57 a0 b4 3d 9e a0 6a be
       -0.19441772 0.34774172 0.08819645 -0.22912833
000200 25 e0 26 be 8c 07 ab 3e 23 0b 53 be dd e0 a3 3e
       -0.16296442 0.33404195 -0.20609717 0.32007495
000210 8b ff 79 3e 23 55 1d 3e 98 f9 08 bc 15 ab a5 bd
       0.24413888 0.15364508 -0.008360289 -0.08089272
000220 5e b3 89 3e 8a 3a 1f be 99 43 0b 3e a8 f5 9c 3e
       0.2689466 -0.15549675 0.13600005 0.3065617
000230 78 1e f8 bd c6 77 ed 3d a1 05 0f bd f0 b8 5f 3c
       -0.121151865 0.115951106 -0.034917478 0.013654932
000240 1b b3 ed bd cf 9f 9f 3e fd b6 9c be 8c d0 7b bd
       -0.11606427 0.31176612 -0.3060836 -0.061478183
000250 bd da a6 3e 75 d8 81 3e 3a f0 9d 3e 63 98 48 3e
       0.3258876 0.25360456 0.3084734 0.19589381
000260 a0 bf 1b be 6c e6 8e be b7 1c 60 be 45 31 85 3e
       -0.15209818 -0.27910173 -0.21885954 0.26014152
000270 fc 14 2c 3e ae e5 a1 bc 40 7f 69 be 3e 4f dd 3d
       0.1680488 -0.01976284 -0.22802448 0.1080613
000280 bf 77 db 3d 5d c2 b5 3e df 4c 23 3e 75 a9 7a 3c
       0.10716199 0.3549985 0.15947293 0.015299191
000290 0c 41 5e 3d 04 6d 29 3d 14 48 05 3e 30 e2 f8 bd
       0.054261252 0.04136373 0.13015777 -0.12152517
0002a0 d7 ce 00 be da f5 90 be f6 85 80 3a b8 d4 b8 bd
       -0.12578903 -0.2831257 0.0009805548 -0.09024948
0002b0 be a7 d9 3d dc 35 10 3e cf c8 9f be cc 40 c4 be
       0.106276974 0.14083046 -0.31207892 -0.38330686
0002c0 5f ab 2e bd 09 d3 20 3e 16 4f 26 3d e3 4e a6 bd
       -0.0426439 0.15705504 0.040602766 -0.08120515
0002d0 ab fc 9d bc ba 35 14 be 43 1a 93 bd d5 8f 9c be
       -0.01928552 -0.1447362 -0.071827434 -0.30578485
0002e0 73 a7 df 3d 26 a1 fb bc c4 72 19 3e 11 2b 91 be
       0.1092061 -0.03071649 0.14985186 -0.2835317
0002f0 08 7c 8d 3e 3e e3 00 3c 0a c2 ce bd b8 61 b0 3e
       0.2763369 0.007866679 -0.10095604 0.34449553
000300 d4 6c c4 bd 45 48 23 bd 7e 0b 67 3e 20 91 7c 3e
       -0.0959107 -0.039863843 0.22562978 0.24664736
000310 1b 8a 08 3e bf bb 88 3c 66 45 c1 be cb 58 53 3e
       0.13333933 0.016691087 -0.3774826 0.2063934
000320 22 6a 7c 3e 73 f6 a9 3d ba 20 19 be 3c 6f 43 be
       0.24649861 0.082989596 -0.1495389 -0.19085401
000330 59 dd 7e 3b 25 19 88 3e 4d e3 6f 3c b3 e3 ee 3d
       0.0038889258 0.26581684 0.014641595 0.11664524
000340 53 2d 83 be 8c 88 80 be eb 67 d6 3d f6 b3 93 be
       -0.25620517 -0.25104177 0.104690395 -0.28848237
000350 0b 48 b0 bd 11 d7 51 be e7 a0 df 3d 58 b6 42 3d
       -0.08607491 -0.20492198 0.109193616 0.047537178
000360 41 45 d1 3d c4 bf b6 3e 43 30 84 3e 8a 75 8c 3d
       0.10218287 0.3569318 0.2581807 0.06858356
000370 24 92 de bd 91 23 9b 3e 80 73 cf bd ee 9a 9d 3e
       -0.10867718 0.30300573 -0.10129452 0.30782264
000380 fd 9a a0 be c4 18 a5 be e0 e1 50 bd a3 0f 9a 3e
       -0.31368247 -0.32245457 -0.05099666 0.30090055
000390 2c 6b 0a bd 9f 0f 1b be c6 53 0c be 4b 70 de 3d
       -0.033793613 -0.15142678 -0.13703832 0.10861262
0003a0 0d 01 65 3e 33 d4 ab be 4c 24 44 3e c7 1d d5 bd
       0.22363682 -0.33560333 0.19154471 -0.1040607
0003b0 16 0d 55 3e 9e fb 89 3d 56 57 10 3d 83 27 26 be
       0.20805773 0.06737445 0.03523954 -0.1622601
0003c0 15 50 0a 3e 98 e5 ae be 5b 89 ac be 15 8a 35 3d
       0.13507111 -0.3415954 -0.33698544 0.04432114
0003d0 b0 3f 6c bd 87 52 03 be ba 1d 97 3c 08 fe 72 3e
       -0.057677925 -0.1282445 0.018446792 0.23729718
0003e0 2a 95 7d 3e 17 20 03 3e f2 f2 5e 3d 49 53 eb bd
       0.24763933 0.1280521 0.05443091 -0.11490495
0003f0 a3 f2 91 be 0f e3 73 3e 1f 3e a1 be dd 12 23 bd
       -0.2850543 0.23817085 -0.31492707 -0.03981291

fc1.bias f4 [128]
000000 57 8d 58 3e ce e0 62 3e a9 36 05 bd 26 6d 31 3e
       0.21147667 0.22156069 -0.03252283 0.17326793
000010 47 24 46 3c df f2 5a be 05 58 4c be 3b 85 c2 3d
       0.01209361 -0.2138171 -0.19955452 0.09498068
000020 d2 11 8c bb 2f 50 9b bd 38 46 85 3e 44 33 06 3e
       -0.0042745853 -0.07583653 0.26030135 0.13105494
000030 5e 4e 2c 3e e7 be 55 3e 89 ec 9c be d0 b9 d1 3c
       0.1682677 0.20873605 -0.30649212 0.025601298
000040 dc 78 9b be 7f a6 dc 3d 75 e2 f1 3d 0b 35 05 bd
       -0.30365646 0.10773944 0.118107714 -0.03252129
000050 c9 c7 b6 bd 89 ec 26 3e cc a0 e4 bd 8b dd 98 be
       -0.08924825 0.16301169 -0.11163482 -0.29856524
000060 2a d4 a2 be 57 0a 7b bd d2 7a 32 be 24 14 8a be
       -0.31802493 -0.061289158 -0.17429665 -0.2696849
000070 21 37 9b be 89 d9 5b be 29 c5 89 be 86 fc a0 3e
       -0.30315498 -0.21469702 -0.26908234 0.3144266
000080 95 5e c1 3d 83 39 fc bd c1 21 2d bd 69 4a 6c 3e
       0.09441868 -0.12315657 -0.04226852 0.2307526
000090 e9 52 b8 3d 1a 37 d6 3d 51 67 71 be 09 96 01 be
       0.09000189 0.104597285 -0.23574568 -0.1265489
0000a0 22 8e 9e be 60 ef e6 bd cf 8b 82 3e 63 32 53 3d
       -0.30967814 -0.11276126 0.2549729 0.051561724
0000b0 ee a6 77 3d 6f 1f aa 3e 4c 40 56 bd 79 09 ba bd
       0.06046193 0.33227107 -0.052307412 -0.09083838
0000c0 5d f6 36 3c de 9b 95 bd 38 54 25 3e 1b b1 aa be
       0.011167136 -0.0730512 0.16145408 -0.33338246
0000d0 1d fb b6 3d 6d 5a 7d 3e 39 f3 65 be 56 5d 24 3d
       0.08934615 0.24741526 -0.22456063 0.040128075
0000e0 c3 b8 af 3e 57 60 86 be 71 e3 89 3c 91 17 89 bd
       0.3432065 -0.26245376 0.016832085 -0.06693948
0000f0 97 a0 87 be 92 f3 88 3e 42 40 76 be bc 2f 07 be
       -0.26489708 0.2674833 -0.2404795 -0.13201803
000100 b0 4a 9f be df 9a 26 3e fb 26 a2 3e 72 c4 4f 3e
       -0.3111167 0.16270016 0.31670365 0.20289782
000110 fd 2f 40 3e 8d 2b 12 be 80 68 5b be 07 08 1d 3d
       0.18768306 -0.14274426 -0.21426582 0.038337734
000120 1c ae a5 3e bf 3d 3f 3e 4b 3d 4b be 0a d4 7e 3e
       0.32359397 0.18675898 -0.198476 0.24885574
000130 1b 70 8e bd 7a a8 31 be d1 3b 05 be 04 cd f5 3d
       -0.06954976 -0.17349425 -0.130111 0.12001994
000140 94 a4 11 be 27 09 7c 3d 20 dd 9b be 78 50 8b 3e
       -0.14222938 0.061532166 -0.30442142 0.2720983
000150 1f 6c 6a 3d 41 04 87 3e f5 95 ce 3d 12 bd 46 3e
       0.05723202 0.26370433 0.10087196 0.19408062
000160 10 9c 95 3d 12 17 49 3e 1e cc b2 3e ab 6d b3 3e
       0.07305157 0.19637707 0.34921354 0.35044608
000170 34 53 5a 3e 38 9b 8c 3e 75 64 8b bd 4b 6f 32 be
       0.21320802 0.27462173 -0.0680627 -0.17425267
000180 7f 41 35 be ea be 7e be 88 65 d0 3d b2 d1 6f be
       -0.17700766 -0.24877515 0.101756155 -0.23419836
000190 d8 35 59 3e 36 3d ef 3c 4b c0 ae 3e fe 94 3b 3e
       0.21211946 0.029203992 0.34131083 0.18318555
0001a0 17 84 88 3e 4e a5 4f bc 07 3b 81 3e 47 33 7d be
       0.26663277 -0.012673689 0.25240347 -0.24726592
0001b0 b7 6c ae 3d 1a 75 9a 3e d5 1d 6a be 86 cc 7c bd
       0.085168295 0.30167466 -0.22862943 -0.061718486
0001c0 db 67 8c be 39 55 05 bd 9b 2a 99 3e 8c 31 7c be
       -0.27422985 -0.032551978 0.29915318 -0.24628276
0001d0 ba fc 74 bc 10 aa 6a 3e 85 4c b2 3d 15 30 81 be
       -0.014952833 0.22916436 0.08706001 -0.25231996
0001e0 dc 54 09 3e 5e 44 60 be 87 b7 b1 3d 04 b8 a9 be
       0.13411278 -0.2190108 0.08677583 -0.33148205
0001f0 4b 39 a7 3e b9 63 ee bd 1c 50 fc 3d c4 09 81 3d
       0.326609 -0.11640114 0.12319967 0.06300691

bn1.weight f4 [128]
000000 41 9b 81 3f 38 49 7c 3f 74 41 80 3f 67 b6 81 3f
       1.0125505 0.9854922 1.0019975 1.013379
000010 14 7f 82 3f 33 a4 82 3f 1f 61 80 3f bd 69 80 3f
       1.0195031 1.020636 1.0029639 1.0032269
000020 6e c2 81 3f 47 12 7d 3f 24 5d 80 3f 80 d0 80 3f
       1.013746 0.98856014 1.0028424 1.0063629
000030 2f 2e 7d 3f 3a 12 81 3f d6 73 80 3f 80 b5 7f 3f
       0.98898596 1.0083687 1.003535 0.9988632
000040 43 2a 80 3f bc 78 7b 3f d7 5c 80 3f 98 9c 7f 3f
       1.0012897 0.982311 1.0028332 0.9984832
000050 46 44 81 3f 9d 18 7e 3f 4b 70 7c 3f 9c 19 80 3f
       1.009896 0.99256307 0.98608845 1.0007815
000060 bb 26 80 3f 83 8b 80 3f a7 39 81 3f 0d ff 78 3f
       1.001182 1.0042576 1.0095719 0.97264177
000070 40 75 7a 3f 62 c7 82 3f 89 f9 81 3f 26 16 7c 3f
       0.9783516 1.0217097 1.0154277 0.98471296
000080 3d 23 82 3f be 25 80 3f 1b b4 7d 3f 3f 15 80 3f
       1.0167004 1.0011518 0.99102944 1.0006484
000090 7a 4c 7e 3f 00 77 7d 3f 41 8f 7a 3f f1 88 7e 3f
       0.99335444 0.99009705 0.9787484 0.99427706
0000a0 04 ba 7c 3f f4 c9 83 3f c6 7c 81 3f 49 c3 80 3f
       0.9872134 1.0296006 1.0116203 1.0059596
0000b0 b7 43 79 3f b0 3e 7f 3f a1 cb 81 3f 30 49 80 3f
       0.9736895 0.9970503 1.0140268 1.0022335
0000c0 57 ad 81 3f f7 e7 7e 3f c9 5b 7e 3f f4 69 81 3f
       1.0131024 0.995727 0.99358803 1.0110459
0000d0 ca c5 7c 3f cf 7a 81 3f ce 29 7d 3f f7 78 7e 3f
       0.987393 1.0115603 0.98891914 0.9940333
0000e0 f0 8b 83 3f a0 be 80 3f 22 20 80 3f 89 38 80 3f
       1.027708 1.0058174 1.0009806 1.0017253
0000f0 f2 a3 7c 3f b1 cf 7e 3f 86 0b 81 3f b9 fd 7d 3f
       0.9868766 0.9953566 1.0081642 0.99215275
000100 ea 28 80 3f 6f 96 80 3f 68 f3 82 3f db 45 7c 3f
       1.0012486 1.0045909 1.0230532 0.9854409
000110 85 5b 7f 3f dd 6f 7f 3f c9 e9 7f 3f 7a a3 7e 3f
       0.9974902 0.99780065 0.999661 0.99468195
000120 bf 78 7d 3f 87 82 82 3f c7 1e 80 3f b5 a4 80 3f
       0.9901237 1.0196084 1.0009392 1.0050265
000130 ca 3c 80 3f 4f a9 83 3f 87 4d 7f 3f 54 2f 81 3f
       1.0018551 1.0286044 0.9972767 1.0092568
000140 4e 3c 7e 3f b7 cd 81 3f 6c 04 81 3f 73 f7 7c 3f
       0.9931077 1.0140904 1.0079474 0.9881508
000150 e9 be 82 3f 29 b9 7d 3f 09 e2 81 3f 3e 12 7d 3f
       1.0214511 0.99110657 1.0147105 0.9885596
000160 a4 16 7c 3f ea 47 80 3f 9e 75 7a 3f 1d 42 7b 3f
       0.98472047 1.0021946 0.9783572 0.98147756
000170 3f a0 80 3f 6f d2 7e 3f 94 d2 7a 3f 09 c2 7f 3f
       1.0048903 0.99539846 0.97977567 0.9990545
000180 ff 41 80 3f 6c 82 7c 3f 59 96 82 3f 28 bf 7f 3f
       1.002014 0.9863651 1.0202132 0.99901056
000190 20 f0 79 3f 80 95 7c 3f 89 bb 7b 3f eb 02 7e 3f
       0.97632027 0.9866562 0.9833303 0.992232
0001a0 0f f0 7c 3f d3 74 80 3f 6e f7 7b 3f 34 92 81 3f
       0.988038 1.0035652 0.9842442 1.0122743
0001b0 32 8b 7f 3f b2 a4 80 3f 4e 28 81 3f c4 de 81 3f
       0.9982177 1.0050261 1.0090425 1.0146108
0001c0 d4 2d 82 3f e1 57 81 3f da aa 7c 3f 03 10 79 3f
       1.0170236 1.0104944 0.986982 0.97290057
0001d0 5e 8e 79 3f 65 a8 80 3f f3 58 7f 3f 47 93 80 3f
       0.9748286 1.005139 0.997451 1.0044945
0001e0 76 4e 7d 3f 35 93 7f 3f 54 5c 81 3f be 79 81 3f
       0.98947847 0.99833995 1.0106301 1.0115278
0001f0 bb 04 80 3f 7e 0f 7f 3f e4 9a 81 3f 75 69 7f 3f
       1.0001444 0.99633014 1.0125394 0.9977029

bn1.bias f4 [128]
000000 a7 51 48 3b d4 c3 67 bc ab 58 08 bc 48 0f 41 3c
       0.0030566247 -0.01414581 -0.008321921 0.0117834285
000010 b2 85 91 3c 30 ae 8e 3c 46 4d 3d 39 24 ea 87 3c
       0.017763946 0.017417043 0.00018053231 0.01659114
000020 6d b0 04 bc 1b 8a a6 bb db c5 8c 3c 54 5e ba bb
       -0.008098704 -0.0050823814 0.017184189 -0.0056875143
000030 9c 23 1d bc 5c 19 fc bb a7 05 b2 bc ee 76 15 bc
       -0.0095910095 -0.0076934528 -0.02173121 -0.009122593
000040 39 71 6c bc 77 5d 32 bd 64 b3 b4 3c 32 74 0e 3b
       -0.014431291 -0.043546166 0.022058196 0.0021736738
000050 ef d2 3d 3a 22 b4 4c bc f8 6b 15 3b 18 a2 48 bc
       0.00072412094 -0.012494119 0.002279995 -0.012245677
000060 01 85 72 3b f2 bd 4e 3c f0 b4 8e bb 9f ab 12 bc
       0.0037005546 0.012618529 -0.0043550655 -0.0089520505
000070 73 85 95 bc 48 c3 05 3d 4f c6 3c 3b c6 81 33 bc
       -0.01825211 0.032656938 0.0028804725 -0.010956233
000080 70 46 47 bc de 84 52 3c 04 b5 94 bc de 00 66 bc
       -0.01216279 0.012849061 -0.018152721 -0.014038293
000090 7e f8 0c 3c 30 a5 83 bc d7 fc ab bc f6 78 54 3c
       0.008604167 -0.016069978 -0.020994587 0.012968292
0000a0 14 04 c7 bb e2 02 21 3c d6 84 80 bc 2f d5 91 bc
       -0.006073484 0.0098273475 -0.015688341 -0.01780185
0000b0 c2 72 0d bb ae 00 23 bc 84 81 af 3c 57 47 ed bb
       -0.0021583294 -0.0099488925 0.021424063 -0.0072411704
0000c0 b6 c7 5e ba 64 e0 64 3c 5f 46 60 bb 96 66 c3 bc
       -0.0008498387 0.0139695145 -0.0034221632 -0.023852628
0000d0 dc db 2d bc 4c b2 1c 3c ac 46 51 ba c1 5d 04 bb
       -0.010611501 0.009563994 -0.0007983248 -0.0020197483
0000e0 b8 eb 89 3c d9 b3 f5 3c 39 fb 09 bb f7 4c 97 ba
       0.016836032 0.029992985 -0.0021054281 -0.0011543323
0000f0 c4 46 db bb f7 65 94 bc 4b 4f f5 3b f4 4d 5c bc
       -0.0066917855 -0.018115027 0.007486259 -0.01344632
000100 56 d8 9a 3c ad 13 57 3b 6c 4c a5 bc 42 37 cb bc
       0.018901985 0.0032818124 -0.020178042 -0.024806622
000110 fc df 66 3b 84 b9 f5 bc 99 18 28 3c 55 1e 01 bb
       0.003522872 -0.029995687 0.010259771 -0.0019701917
000120 f7 e0 2b bc d8 14 7c 3c 6d aa c3 bc cc 33 41 bc
       -0.0104906475 0.015385829 -0.023884976 -0.0117921345
000130 bd a5 93 bb e9 18 0e 3c ab 7a fe bb 3a b0 ec 39
       -0.0045058415 0.008672931 -0.007766088 0.00045144727
000140 20 40 8f 3b 9b 48 2b bc 47 ca 2e bc ad 32 13 bc
       0.004371658 -0.010454322 -0.010668344 -0.00898425
000150 38 c3 83 3c 29 08 ce bc 25 9f 4a bb f1 84 31 bc
       0.016084298 -0.025150375 -0.0030917611 -0.010834918
000160 1c c0 e4 bc be 0e 5a bb 27 68 a7 bc d7 4f 21 bd
       -0.027923636 -0.0033272947 -0.020435406 -0.03938278
000170 71 15 a8 3c 47 25 b3 bc 06 a6 11 bd 9f e5 62 3c
       0.020518037 -0.021868361 -0.035558723 0.013848691
000180 1a 12 14 bc e5 f0 b2 bc 56 05 29 3c 26 86 15 3c
       -0.009037519 -0.021843383 0.010316214 0.009126222
000190 d3 10 03 bd 22 b5 ac bc f6 25 c1 bc e0 c7 bc bb
       -0.031998467 -0.021082465 -0.023577671 -0.0057611316
0001a0 14 26 a2 bb bd 55 fc bb c8 39 44 3b bc e5 1d 3b
       -0.004948387 -0.0077006505 0.0029941667 0.0024093231
0001b0 23 61 63 bc 83 bc 83 3b 83 29 73 3c c8 87 a7 bb
       -0.01387814 0.004020275 0.01484144 -0.005112622
0001c0 6b b9 9c bb e4 b2 93 3c 72 bd 12 bd 94 ec 8e bc
       -0.0047828457 0.018029638 -0.0358252 -0.017446794
0001d0 9f 11 b3 bc 4f d2 9a 3b d1 d1 f5 bb 56 b7 17 bc
       -0.021858988 0.004724778 -0.0075018187 -0.009260019
0001e0 5f 53 af bc 7b f7 27 3c 19 04 c1 bb 70 ea a5 3c
       -0.02140206 0.010251875 -0.005890381 0.02025339
0001f0 22 91 02 bd 94 af 0f 3d 59 5b fb 3b c5 ed 16 3c
       -0.03187669 0.035079554 0.0076708016 0.009211962

bn1.running_mean f4 [128]
000000 5e b8 4a 3e 9c 88 37 3e c0 7f 26 bd 06 0b e8 3d
       0.19796893 0.17923206 -0.040649176 0.113302276
000010 db 2d 76 3c 94 d6 3e be 0a 2d 8a be 5c 73 2b 3e
       0.015025581 -0.18636543 -0.26987487 0.16743225
000020 49 cf 40 bc e4 88 6d 3c c8 2f ac 3e cf 87 5f 3e
       -0.011768171 0.014497969 0.33630204 0.2182915
000030 32 9b 6f 3e 1c dd 1d 3e 2c cb 83 be d8 4d ba bc
       0.23399046 0.15416378 -0.25740945 -0.022742197
000040 54 2e 83 be 5d d0 e1 3d d8 fd 65 3e b4 fe 86 bd
       -0.25621283 0.1102607 0.22460115 -0.065915495
000050 46 06 27 bd 2a 2f 94 3d 95 49 19 be 07 45 74 be
       -0.040777467 0.07235558 -0.14969476 -0.23854457
000060 3a 70 9d be 40 04 80 3b 00 e9 71 be df 21 23 be
       -0.30749685 0.0039067566 -0.23624039 -0.1593089
000070 34 0c be be 8b ee 7c be a2 89 92 be a8 06 ac 3e
       -0.37118685 -0.24700372 -0.2862063 0.33598828
000080 c2 73 04 3e 7c 87 60 bd 6b f4 94 bd f9 92 73 3e
       0.12934783 -0.054816708 -0.072731815 0.23786534
000090 b4 ad 09 3e 70 95 cb 3d 92 0b 82 be 74 6a 60 be
       0.13445169 0.09940612 -0.25399452 -0.21915609
0000a0 a2 bf 9c be 37 62 a2 bd d1 98 1d 3e 2f f6 60 3c
       -0.30614954 -0.07928889 0.15390326 0.01373057
0000b0 b2 ad 37 3c 6d 1c 9e 3e c0 3c c0 bd 4a 3d a2 bd
       0.011210846 0.30881062 -0.09386587 -0.07921846
0000c0 0d ac a5 3d c5 87 c7 bd 66 b6 5b 3e ef ba 83 be
       0.08089457 -0.09742693 0.21456298 -0.25728557
0000d0 b5 d4 60 3d c0 cf 84 3e 39 9c 12 be 42 ce 15 3d
       0.054890353 0.2593975 -0.14317407 0.036573656
0000e0 6b e7 a9 3e 95 83 34 be 1c 4e e4 3c f1 d4 01 be
       0.3318437 -0.1762832 0.027869277 -0.12678887
0000f0 5b 4f 51 be f3 b5 98 3e 73 7b 47 be 3a 84 20 be
       -0.20440428 0.29826316 -0.19480686 -0.1567544
000100 ee 95 ad be 6f 87 65 3e f9 3a 70 3e 30 53 29 3e
       -0.3390345 0.22414945 0.23459996 0.1653564
000110 49 5a 4c 3e 0d 3a 03 be ec a3 14 be ea 3d 05 bc
       0.19956316 -0.12815113 -0.14515656 -0.008132437
000120 24 e5 c1 3e bf e8 56 3e 9a 28 8a be 14 58 9d 3e
       0.37870133 0.20987223 -0.26984102 0.3073126
000130 4c 73 65 bd 97 e3 60 be 77 7e 05 be e2 37 23 3e
       -0.05601816 -0.21961819 -0.13036524 0.15939286
000140 05 55 9b bd 8e e6 78 3d 88 ae 8c be 6e 3b 99 3e
       -0.075845756 0.06076675 -0.27476907 0.29928154
000150 2d f9 91 3d 2f 82 8c 3e bb 8c 86 3d e9 9c 56 3e
       0.07127605 0.27443072 0.06569811 0.20958294
000160 38 db 2f 3d a2 6d 43 3e 63 83 a5 3e 91 24 b9 3e
       0.042933673 0.1908479 0.32326803 0.3616071
000170 bb 71 22 3e 31 cd a7 3e 02 2f 89 bd d8 11 e1 bd
       0.15863697 0.32773736 -0.06698419 -0.109897316
000180 39 67 5f be 66 d1 5a be 68 94 a5 3d 38 a5 bd be
       -0.2181672 -0.21368942 0.08084947 -0.37040114
000190 6a cd 19 3e 98 a2 1b bc 33 ba c1 3e 3c 8f 03 3e
       0.15019765 -0.009499215 0.3783737 0.12847608
0001a0 3d 10 29 3e ac ab 19 3c 98 ae 7d 3e 33 66 36 be
       0.165101 0.009379309 0.24773633 -0.17812423
0001b0 a2 48 01 3e a9 d3 9e 3e 3b e4 30 be 04 aa ba bd
       0.12625363 0.3102086 -0.17274563 -0.09114459
0001c0 a4 59 7a be a8 e3 82 bd ac a4 90 3e 3e 3c 98 be
       -0.24448258 -0.06391078 0.28250635 -0.2973346
0001d0 ed 3d fe 3b c7 3f 86 3e 6f bf 8a 3d 89 f7 7d be
       0.007758847 0.26220533 0.06774794 -0.24801458
0001e0 42 c4 ba 3d cf 18 a1 be e1 ff 01 3e 1a 11 8b be
       0.091194645 -0.3146424 0.12695266 -0.27161485
0001f0 30 1a 99 3e c2 36 4a bd 24 83 17 3e 2d 4b 63 3d
       0.29902792 -0.049368627 0.1479612 0.055491615

bn1.running_var f4 [128]
000000 b5 b1 0f 3e 86 c0 39 3e 08 2a 57 3e 45 8c c1 3e
       0.14032634 0.18139848 0.21012127 0.3780233
000010 b3 1d b2 3e 05 56 13 3e 1e ab 14 3f c7 82 9a 3e
       0.34788284 0.14388283 0.58073604 0.301779
000020 5b 5d 9e 3d ac dd fe 3e e8 10 d3 3e 4e 2e 27 3f
       0.0773265 0.49778497 0.41223836 0.6530503
000030 a7 48 01 3f 3c 09 d8 3e 81 0b b4 3e 1b 65 0b 3f
       0.50501484 0.42194545 0.35165027 0.5445115
000040 9c 64 0e 3f 40 81 6c 3e fd f8 11 3f ce b1 82 3e
       0.5562227 0.2309618 0.5702055 0.2552628
000050 73 c0 69 3e 86 84 df 3e 0b 30 ed 3d 25 af b5 3e
       0.2282732 0.43655795 0.11581429 0.35485187
000060 c3 88 96 3e 01 37 53 3e fb f3 a0 3e 4e f3 1e 3f
       0.29401216 0.20626451 0.31436142 0.62090003
000070 5b cc 9b 3e 5c 39 31 3e a4 c2 ac 3e 12 25 ae 3e
       0.30429348 0.17307037 0.3374225 0.34012657
000080 19 77 5a 3e 81 c3 92 3e 4d 3f be 3e 6e 9a a4 3e
       0.21334495 0.28664783 0.3715767 0.3214907
000090 7e 93 b2 3e 68 23 04 3f 6b cf 7f 3e 2d cb 9d 3e
       0.34878153 0.51616526 0.24981467 0.30819073
0000a0 3d d6 e9 3e dd 0a 07 3e 54 20 09 3f c6 8a 3f 3e
       0.45671263 0.13187738 0.53564954 0.18705282
0000b0 ee c8 df 3e 0a a5 8b 3e d3 87 02 3e 52 30 ed 3e
       0.43707985 0.27274352 0.12747125 0.46325928
0000c0 00 09 8b 3e 4a 3e 6e 3e 72 87 80 3e b1 61 97 3e
       0.27155304 0.23265949 0.25103337 0.2956672
0000d0 b9 99 8e 3e c3 0a 46 3e a5 c6 ae 3e 5c 0b 83 3e
       0.27851656 0.19340043 0.3413593 0.25594604
0000e0 5d db 9e 3e c8 65 d5 3e 9a e9 9a 3e 91 10 b0 3e
       0.31026736 0.41679215 0.3025635 0.3438764
0000f0 34 18 ad 3e 9e 88 ca 3e b8 09 f0 3e b6 77 91 3e
       0.33807528 0.39557356 0.46882415 0.28411645
000100 55 b7 a8 3e 66 64 49 3e 98 f2 ad 3e 7e 9c 34 3e
       0.3295237 0.19667205 0.33974147 0.17637822
000110 6b 6f 86 3e a4 fc 39 3e 1e 0e 95 3e 0b 87 c1 3e
       0.2625688 0.18162781 0.29112333 0.37798342
000120 f8 c0 3b 3e ee e3 5c 3e 1c a1 b9 3e a6 ca 70 3e
       0.1833533 0.21571323 0.3625573 0.23514804
000130 03 13 b1 3e d8 18 3a 3e 5c 9d 86 3e 94 5d 7f 3e
       0.34584817 0.1817354 0.2629193 0.24938041
000140 ef 79 33 3f 8b 0c ef 3e 2a 43 d9 3e bc 0e 7a 3e
       0.7010793 0.46689257 0.42434055 0.24419683
000150 8c 46 b7 3e ae 6a 2b 3e f9 5f ba 3e f0 36 44 3e
       0.3579601 0.16739914 0.36401346 0.19161582
000160 9d ca 0e 3f 06 4a 7a 3e 1a 85 07 3f 8b 3b a8 3e
       0.55777913 0.244423 0.5293747 0.32857928
000170 a4 b5 be 3e a9 53 98 3e 75 f7 6a 3e 69 a2 06 3f
       0.37247956 0.29751328 0.2294596 0.5259157
000180 e8 0e a3 3e 12 fb 93 3e eb 62 64 3e e7 d1 43 3f
       0.3184731 0.2890249 0.22303359 0.7649216
000190 96 30 06 3f 10 77 19 3f 1c 6e 11 3f af 31 bc 3e
       0.52417886 0.599473 0.5680864 0.36756656
0001a0 84 27 2b 3f 71 5f 02 3f a5 a3 68 3e b0 b4 ff 3e
       0.6685717 0.5092688 0.22718675 0.4994254
0001b0 ac 59 1a 3e 97 d2 5e 3e 81 b5 a2 3e c6 2c a2 3d
       0.1507327 0.21760021 0.31779101 0.07918696
0001c0 a0 fe 2e 3f 34 3b 88 3e 50 8e 52 3e 1a 61 ab 3e
       0.68357277 0.26607668 0.205621 0.3347252
0001d0 a5 df 17 3f 72 af 82 3e e8 01 a4 3e d7 e4 98 3e
       0.5932563 0.2552448 0.32032704 0.2986209
0001e0 92 e0 09 3f dc 57 e5 3e c5 5c c3 3e 9c 44 5d 3e
       0.5385829 0.44793594 0.38156715 0.21608204
0001f0 9f 25 e5 3d ea 41 a0 3e ea 93 94 3e 58 64 5c 3e
       0.11188816 0.31300288 0.290191 0.21522653

fc2.weight f4 [256, 128]
000000 04 c8 a0 3c 7a c1 bc 3d b4 d1 56 3d 9c 05 f0 3c
       0.019626625 0.0921659 0.052446082 0.02929955
000010 b9 51 4f bd c2 82 60 bd 97 2a 9a bc f9 3a 5d bd
       -0.050615046 -0.0548122 -0.018819137 -0.05401132
000020 bd 16 e0 bc 65 1f a0 3c 8c 5c 97 bd 94 a7 7d bc
       -0.027354592 0.01954622 -0.07390699 -0.015481848
000030 07 6e b1 bd 4a b5 b5 bd a1 1d 02 bd 57 c2 1f bd
       -0.08663564 -0.08872469 -0.031766538 -0.039003696
000040 04 29 9b bd 7b 66 0e 3c cd bd 85 3d 14 0c b5 3c
       -0.075761825 0.008691425 0.06530342 0.022100486
000050 a8 f7 a1 bd cb 13 a5 3d 6d 4e db bc 8e 3b 64 3b
       -0.07908565 0.08060416 -0.026770795 0.0034825536
000060 12 e9 03 bc 65 24 f7 bc 22 47 7d bd 9b a4 07 3c
       -0.008051174 -0.030168721 -0.061835416 0.008278991
000070 66 e7 99 3d 96 4f 5a 3d cb 84 df 39 7d e8 6b bd
       0.07514839 0.053298555 0.00042632813 -0.057594765
000080 66 76 c4 3c 70 42 2c 3d 88 03 e6 3c 29 0e 40 bd
       0.023982238 0.042055547 0.028077856 -0.046888504
000090 e3 81 af bd dd 01 f6 bb 8d 21 b5 3d c3 22 2c 3d
       -0.08569696 -0.0075075463 0.0884429 0.04202534
0000a0 8b 18 55 3c 26 d0 f5 bc 12 ef 2e 3d 46 f7 6c 3c
       0.01300634 -0.03000648 0.042708464 0.014463251
0000b0 7d 98 73 bd 5a c5 89 3d 6a 5d 91 ba 25 1a 81 3d
       -0.059471596 0.06727095 -0.0011090462 0.06303815
0000c0 73 ed 05 39 b2 55 73 3c 59 98 b7 bd a2 2e 26 bd
       0.00012772325 0.014851974 -0.08964605 -0.040571816
0000d0 18 62 e9 3b 81 e7 63 bd 56 4c a6 3c 8c d2 91 bb
       0.0071222894 -0.0556407 0.020300072 -0.004450148
0000e0 5d 4c 90 3c 41 54 06 3d 85 fd e8 bc a6 a4 40 bd
       0.017614538 0.032795195 -0.0284412 -0.04703202
0000f0 af 14 82 bd 47 00 34 3d 57 25 8e 3d b0 c8 07 bd
       -0.06351601 0.043945577 0.06940716 -0.033150375
000100 3a 49 53 bd 01 c4 04 bd bf 9f 7c bd bb 57 9b 3d
       -0.051583506 -0.032413486 -0.061675783 0.07585093
000110 9c df da ba 10 6a a0 bd c7 e3 bf 3c 87 e2 82 bc
       -0.0016698721 -0.0783273 0.023424042 -0.015977157
000120 79 a1 d0 bd 0e 11 f7 bc 13 c2 6d bd 41 8f 63 3b
       -0.101870485 -0.0301595 -0.05804641 0.0034722837
000130 54 f2 68 3b 95 c2 7a bd 51 a7 01 bd 82 83 8f bd
       0.003554483 -0.061220724 -0.031653706 -0.07007505
000140 c4 59 4d bc 09 b4 4b 3d f7 01 b8 3c 13 1d ec 3c
       -0.012533609 0.04973224 0.022461874 0.028822457
000150 07 6d a3 bd 94 0c d8 3c 13 f9 2a 3d 2b 3a 51 3c
       -0.0797978 0.026373185 0.041741442 0.012770216
000160 8d 7f c9 bc 37 5a 97 bd 7a cc 9b bc 59 32 67 3d
       -0.024596954 -0.07390254 -0.0190184 0.0564445
000170 7f 8a 12 bd d5 ba 3b 3d 1a d0 4e 3c f3 21 9f bc
       -0.03577661 0.045832474 0.0126228575 -0.019425368
000180 d7 e4 c9 3d cc cf a5 bd 18 9d d7 3c a5 70 7f 3c
       0.09858101 -0.08096275 0.026320025 0.015590821
000190 d5 ed 60 bd 25 1a 61 3d b2 ea 0c 3c 02 5a 9a bc
       -0.054914314 0.054956574 0.008600878 -0.018841747
0001a0 9d ae 42 3d db be 90 3d 25 fc 9d bd 90 3c 26 3d
       0.047529805 0.07067653 -0.077141084 0.0405851
0001b0 ed ad 23 bc 24 6c 27 3d b1 0b 4c bd 53 69 b4 3c
       -0.009990198 0.040874615 -0.049815837 0.022022879
0001c0 e6 8d 65 bd ff 30 13 bd b8 ca 64 bd 63 24 ae bc
       -0.056043528 -0.0359354 -0.05585739 -0.021257585
0001d0 a0 14 28 bd 01 4a 2c bd 8c a5 8b 3d 06 a0 0b 3d
       -0.041035295 -0.042062763 0.06818685 0.034088157
0001e0 84 f7 00 3d 9d cc 22 3d b0 bd 01 bd 5a 0d c0 bd
       0.03148605 0.039745916 -0.03167504 -0.093775466
0001f0 ef 72 e4 bb f7 c3 a0 3d 91 43 8f bd 14 57 b5 bd
       -0.006971709 0.07849877 -0.06995309 -0.088544995
000200 43 59 88 bd 4b 7f ab 3d cc e5 aa bd f3 f8 42 3d
       -0.0665765 0.083738886 -0.083446115 0.047600698
000210 81 06 fb 3b 5c 90 b4 3d 83 4c f6 bc d1 ad 09 bd
       0.0076606874 0.08816597 -0.03006578 -0.03361303
000220 2e fe 89 3c 0a 29 84 3d 0c 23 91 3d 75 b7 2c bd
       0.016844835 0.0645314 0.07086763 -0.042167146
000230 11 8d 49 3d 24 e3 25 3c a7 c9 c2 3c 96 b0 8a 3d
       0.049206797 0.010124955 0.023777796 0.06771962
000240 c5 36 7a 39 61 b2 65 bd 0f 7d 1c bd 2e 74 5b bd
       0.00023862261 -0.05607832 -0.038205203 -0.053577594
000250 0f d2 43 3b 0e 98 66 bd 65 df 00 bd 5f 2d c6 3c
       0.0029879843 -0.056297354 -0.031463046 0.024191556
000260 8d 97 9c 3b 11 21 8c 3c 68 cb a3 bd 68 ee f9 bc
       0.0047788084 0.017105611 -0.07997781 -0.030509189
000270 58 94 12 3d 76 cf ed 3b 86 0e a5 3d 1a 8b a6 3d
       0.035786003 0.0072573973 0.08059411 0.08132
000280 b9 3d 87 3b 87 02 2d 3d 80 b6 c3 3c 05 45 3a bd
       0.004127231 0.04223874 0.023890734 -0.04547598
000290 15 91 5a 3d 70 1c 30 bd 47 c3 09 3c 7d 42 bb bd
       0.053361017 -0.04299587 0.008408374 -0.09143541
0002a0 70 a4 ae 3d 12 b1 7c bd 8b 5d 8f bd 24 e2 61 3d
       0.08527458 -0.061692305 -0.07000264 0.055147305
0002b0 b0 ab 80 bd 9a dd e2 3c 01 2d 1d bd 18 7d de 3c
       -0.06282747 0.027693558 -0.038372997 0.027159259
0002c0 45 00 da 3c 43 51 55 b9 08 f0 ef bb cd c5 11 3d
       0.026611457 -0.00020343535 -0.007322315 0.03558903
0002d0 28 1f 7c 3d 47 91 6f 3d ec 24 96 3d 6d ba 7d 3c
       0.06155315 0.058488157 0.07331261 0.015486342
0002e0 fc e4 64 bd b5 69 31 bd 1c 9a 43 bd ba bd 2c bd
       -0.05588244 -0.0433137 -0.047754392 -0.042173125
0002f0 5b 15 6e 3d 68 ac 8b bd c6 63 93 bd 47 fd 0f 3d
       0.058125835 -0.06819993 -0.07196765 0.035153653
000300 6e 60 71 3d 54 4a b8 bd 7a bf 34 3d bd e2 6d 3d
       0.058929853 -0.08998552 0.04412792 0.058077563
000310 59 e1 5b 3d 71 f1 4f 3d 90 65 de 3c 98 20 73 bd
       0.053681705 0.050767366 0.027148038 -0.059357256
000320 91 66 38 bd 74 b8 12 bd 47 d5 81 bd ea 3a 1d bc
       -0.04501969 -0.03582044 -0.063395076 -0.009596566
000330 f6 fd 7a 3d 5d 28 ab bd 9b d4 93 bd eb 8e 03 3b
       0.061277352 -0.08357308 -0.07218286 0.00200742
000340 da cc 9c bd 74 2e 6c 3d e2 17 7a bd 05 03 58 3d
       -0.0765626 0.05766149 -0.061057933 0.052737255
000350 59 49 a9 3c 52 00 4a 3d 35 5c 3a 3d d8 8d 4c bd
       0.020664858 0.04931671 0.04549809 -0.04993996
000360 82 b6 e2 3c 02 d5 97 bd b3 c2 d7 3b 99 9c 77 3c
       0.027674917 -0.07413675 0.0065844893 0.015113019
000370 56 49 cc 3c 85 12 cf bc ee cd 02 3d 35 43 11 bb
       0.024937313 -0.025277385 0.03193467 -0.0022165303
000380 d4 fa 80 3d 80 ba e9 3c 5a f4 52 3b de 96 b6 3d
       0.06297842 0.028531313 0.0032189102 0.089154944
000390 ae 74 4e 3d 96 8e 8c 3d 0d f8 69 3d 20 92 d1 3c
       0.050404243 0.068631336 0.057121325 0.025582373
0003a0 09 2e 28 bd e1 ac c4 bd 38 da d6 bb 63 7e c9 bd
       -0.041059528 -0.096032865 -0.0065567754 -0.098385595
0003b0 06 67 18 3c 9f 30 8d 3d a2 40 9c bd 43 4d f7 3b
       0.009301906 0.06894039 -0.07629515 0.007547052
0003c0 dc 7e 26 3d 6f 0c 7e 3d d4 58 b0 3d 30 24 fa bc
       0.040648326 0.062023576 0.086106926 -0.030534834
0003d0 dc e4 12 bd 52 1b 67 bd 94 2f 20 3c a3 e8 9e bd
       -0.03586279 -0.05642254 0.0097769685 -0.07759216
0003e0 68 25 fe bc a0 9f 7e 3d 85 a2 10 bd 6d fd 90 3c
       -0.031023696 0.06216395 -0.03531124 0.017698968
0003f0 e5 31 94 3d 25 e6 c1 bc 22 9b af 3d 7e 30 b3 3c
       0.07236079 -0.023669312 0.08574511 0.021873709

fc2.bias f4 [256]
000000 91 b9 3d 39 31 9f 5e bd f2 a6 02 3d 6f 51 9d bd
       0.00018093573 -0.054351036 0.031897493 -0.07681548
000010 c7 27 a9 3d 85 9e 2a bd 03 76 36 3b 7f e4 27 bd
       0.0825954 -0.041655082 0.0027841337 -0.040989395
000020 2d 51 0a 3d 61 f7 77 bd d5 2a 17 bd 07 70 24 3d
       0.03376882 -0.060538653 -0.036906082 0.0401459
000030 9a 3c 65 bc 99 bf f5 bc f2 93 a0 bd 3e a4 27 3c
       -0.013991499 -0.029998587 -0.07840718 0.0102320295
000040 12 46 2a bd 8e e3 1a 3d db ee ab 3d 73 78 96 bd
       -0.04157073 0.03781467 0.083951674 -0.073471926
000050 3b 9a 39 bd d7 a0 8f 3c f0 ef b6 bb c1 ab a6 bc
       -0.0453131 0.01753275 -0.005582802 -0.02034557
000060 f7 72 0d bd 50 a4 da 3c 9b 08 50 bc 6b af c8 3c
       -0.034533467 0.026689678 -0.012697364 0.024497708
000070 2b f2 80 bd f8 59 12 3b 40 37 7d bd 46 bd 4b bd
       -0.0629619 0.0022331458 -0.06182027 -0.049741052
000080 8e 08 b2 bd ca f9 78 3d e4 1d 86 3d 39 1b 1f 3c
       -0.08693038 0.060785092 0.0654867 0.00971108
000090 38 ce 1f 3d c2 80 fc bc ab 23 92 3d c3 2b 6d 3c
       0.039015025 -0.030823115 0.071357094 0.014475766
0000a0 ea 4a ba 3c 58 55 81 3d 31 c4 01 bd 46 27 8c 3d
       0.0227408 0.06315106 -0.031681243 0.06843428
0000b0 7a 6e 4b bd 32 cf 22 3c 54 f5 0e 3d f1 2b 83 bd
       -0.049665906 0.0099370945 0.034901932 -0.064048655
0000c0 65 b5 a3 3d eb 13 83 bd 64 70 46 bd 57 ee 3e bd
       0.07993583 -0.064002834 -0.048447028 -0.046614017
0000d0 33 e2 59 3d b7 41 d6 bc eb f8 88 3d d7 44 db bc
       0.053194236 -0.026154382 0.06688102 -0.026766224
0000e0 71 ed 86 bd 5b 77 60 3d 47 f6 32 bd 12 58 29 3d
       -0.06588257 0.054801326 -0.0436919 0.041343756
0000f0 90 b2 bc bb 22 ae 8d bd a7 f4 71 bd de 0e a0 3d
       -0.005758591 -0.06917979 -0.05907121 0.07815336
000100 51 3c e6 3a ad 1b 6a 3c 1d 5e 6a 3d 8e 0c 73 bd
       0.0017565583 0.014288825 0.05721866 -0.059338145
000110 2a 1c a7 3d 1c 30 a9 3d e9 50 80 bd 89 16 45 bc
       0.08159669 0.08261129 -0.062654324 -0.012029299
000120 4f f7 4f bd 24 9c 76 b9 3e 47 7f bd 9e 54 a5 3d
       -0.05077296 -0.00023518555 -0.0623238 0.0807278
000130 06 e3 ab bd 51 ee 99 3d 1b 5b de 3b 14 0b af bd
       -0.08392911 0.07516158 0.006785763 -0.08547035
000140 97 88 b9 ba 3c d8 ee bc 65 13 36 bd e8 c6 fd bc
       -0.0014155087 -0.029155843 -0.04445209 -0.030978635
000150 e8 7a b4 bd d1 03 91 3c 59 34 2d 3d 7c 82 26 3d
       -0.08812505 0.017702015 0.04228625 0.040651783
000160 11 db 12 3d 1d 97 44 3d 7b 97 2f 3d e1 bf 82 bd
       0.03585345 0.047995675 0.042869072 -0.06384254
000170 7f 1a 0b bd 4a c6 a1 bd b8 f1 7e bc e3 bb b4 bd
       -0.033960816 -0.07899149 -0.01556056 -0.08824899
000180 b7 d6 a5 bb bd 53 4e bd 9f f4 60 bd 7f 80 9e bd
       -0.0050609964 -0.050372828 -0.05492079 -0.077393524
000190 f7 22 b3 bc 61 d6 d7 3a b6 0d aa 3d 56 11 24 bd
       -0.021867258 0.0016467088 0.083033964 -0.040055595
0001a0 33 9a 0b bd d8 8b 4e 3d d2 a1 a7 bb 75 7f a0 3c
       -0.034082603 0.050426334 -0.005115726 0.019592026
0001b0 97 a4 6a 3c f7 30 94 bd 1e ac 8a bc 2f f2 20 3c
       0.014321468 -0.07235902 -0.016927775 0.009823366
0001c0 23 22 76 3d 22 06 00 3b b8 e5 a6 bd 3b 08 50 bd
       0.06009115 0.0019534905 -0.08149284 -0.0507891
0001d0 c0 29 91 3d ac 3a 8c 3d c5 dc da 3b db fc 1f bd
       0.07088041 0.06847128 0.00667915 -0.0390595
0001e0 7e 62 3b bd 62 69 a1 3d a8 98 5e bb cc f9 92 3d
       -0.045748226 0.07881428 -0.0033965502 0.07176551
0001f0 18 e8 e8 bc 92 dd 95 bd 3f 45 03 bd 2f fb 7a 3d
       -0.028430983 -0.07317652 -0.03204846 0.061274704
000200 6f d1 fc 3b 3b ac d0 bb f3 52 9c 3c eb fa 3f bd
       0.007715396 -0.0063681877 0.019082522 -0.046870153
000210 75 93 08 3d 83 41 5e 3d fa 49 5e bd 6f cf e0 3c
       0.03334375 0.054261696 -0.05426977 0.027442662
000220 0d fc 34 bc a7 8f b2 3d 9d a5 82 bd 57 42 6e bd
       -0.011046422 0.08718806 -0.063792445 -0.058168735
000230 6f 1c 86 3c 1d 4a 9e 3d 14 4c 88 bd 8a bb 5d 3d
       0.01637098 0.0772898 -0.06655136 0.05413393
000240 7a 4b 9c bd ae d2 ac 3d 42 07 78 3d 39 85 a1 bd
       -0.076315835 0.084386215 0.060553797 -0.07886738
000250 dd a0 69 bd cc ef f9 bc a6 5f f6 3c 3f ac 91 bd
       -0.057038177 -0.030509852 0.030074906 -0.071129315
000260 9c 57 22 3d 2b 13 13 bd 85 de 95 bc 5b a3 a7 3d
       0.039634332 -0.035906952 -0.018294582 0.081854545
000270 e1 18 29 bd 2a a5 b6 3c 51 b0 23 bc 11 2d e0 bb
       -0.041283492 0.022295553 -0.009990768 -0.00684131
000280 22 19 a1 bd 5f 85 ad bb 6b 55 91 bc 42 bc ab 3d
       -0.07866122 -0.00529544 -0.017740926 0.08385517
000290 d1 cf 04 bd ba 18 92 bd 0e 07 9e bd 18 bd 03 3c
       -0.03242475 -0.071336225 -0.07716189 0.008040689
0002a0 a7 c2 f4 bc d3 45 5c bc 2d 8d 58 bd 20 34 6b bd
       -0.029877974 -0.013444382 -0.05286901 -0.057422757
0002b0 5a 11 8d bd 48 93 8e bc 93 fa 93 3d 5a 04 9a 3d
       -0.06888075 -0.017404214 0.072255276 0.07520361
0002c0 0d 62 4d bc 86 c6 a6 bd de 87 a8 3d 4c d3 43 3d
       -0.012535584 -0.08143334 0.082290396 0.04780893
0002d0 22 30 db bc d2 ef 21 3d d1 79 2b 3d a6 5f 9f 3d
       -0.02675635 0.03953535 0.04186422 0.07781915
0002e0 0a 5c 09 3d a5 f8 dd 3a c1 0c 93 3d 88 c7 a7 3d
       0.03353504 0.0016935064 0.07180167 0.081923544
0002f0 54 41 13 3d 6d d2 85 3d a5 ed 2f 3d 9f 88 0e bc
       0.035950974 0.06534276 0.042951245 -0.008699565
000300 10 5a 69 3c 85 b8 96 bc 44 64 8c 3d 22 cc d1 3c
       0.014242664 -0.018398533 0.06855062 0.025610033
000310 be 56 71 bc 7c 20 9c 3d f0 6b 25 bd 6d 3c bc bc
       -0.014730154 0.076233834 -0.04038614 -0.022978032
000320 5a 20 c9 bb 74 80 90 3d 34 bd a2 bd 7c 71 87 3d
       -0.00613789 0.070557505 -0.07946244 0.06613442
000330 dd d9 96 3b 9a 81 11 3c cb 37 4c bc 4f 3b 26 bd
       0.004603608 0.008880997 -0.012464474 -0.040583905
000340 17 6a 05 3d 1e 4c a7 bd be bb bd bb f6 98 b8 3c
       0.03257188 -0.08168815 -0.005790203 0.022533875
000350 98 73 97 3d 31 18 aa bd 7d 18 bd bc b0 58 13 bd
       0.07395095 -0.083053954 -0.023082966 -0.03597325
000360 9e 57 a9 3d 3e bb 8e 3d 78 08 17 bc 9b 7e 45 3d
       0.08268665 0.06969307 -0.009218328 0.048216444
000370 c8 5e af bd e3 84 a4 3d a9 6f d8 bc 80 9c b2 3d
       -0.08563 0.08033159 -0.026420431 0.08721256
000380 e1 15 b1 3d 9d 9f 8b bd 96 d0 a0 bd 3c a4 15 bd
       0.08646751 -0.06817553 -0.078522846 -0.03653358
000390 9c 9a 23 ba d9 73 b3 bd ea 28 60 3d bc f7 5e 3d
       -0.0006240995 -0.087623306 0.05472652 0.054435477
0003a0 a4 90 b3 3c 93 6b ed bb e2 53 87 3d cc 07 f3 bc
       0.021919556 -0.00724549 0.06607796 -0.029666804
0003b0 cd 7b 5c 3d 82 4f c8 3c b9 72 95 ba 4f c2 4e bd
       0.053829003 0.024451975 -0.0011401988 -0.050478276
0003c0 bf e5 c3 bc f5 82 55 3d 54 a0 7c bd c6 6a 78 bd
       -0.023913262 0.052126843 -0.06167634 -0.060648702
0003d0 01 9d 99 bd 51 3a de bc 3a a9 9c 3d 19 69 b7 bc
       -0.07500649 -0.027127417 0.07649465 -0.022388982
0003e0 c0 8c fe bc e7 1a 7e bd 32 37 9c bd 30 df 6e 3c
       -0.031072974 -0.062037375 -0.07627715 0.014579579
0003f0 02 bf 9b 3d 3a 6e 97 bc 7a 88 aa 3d 1e 4f 9f 3d
       0.07604791 -0.018485177 0.08326812 0.07778762

bn2.weight f4 [256]
000000 7d 5a 7f 3f 99 94 7f 3f 4f 83 81 3f 80 a7 80 3f
       0.9974745 0.9983612 1.0118197 1.0051117
000010 af 03 82 3f 25 bf 80 3f 3b 12 7c 3f e9 9b 7e 3f
       1.0157374 1.0058333 0.9846532 0.9945665
000020 13 56 80 3f 0e 6d 80 3f ca fa 80 3f 28 c2 80 3f
       1.0026268 1.0033281 1.0076535 1.0059252
000030 22 29 7f 3f 06 15 7c 3f b0 e1 80 3f 16 7a 7e 3f
       0.9967214 0.9846958 1.0068874 0.9940504
000040 be f3 80 3f c5 01 7e 3f f1 b4 81 3f a1 f2 7f 3f
       1.0074384 0.9922145 1.0133344 0.999796
000050 63 62 7d 3f 61 cc 7d 3f 6f 9b 7d 3f 24 08 80 3f
       0.9897825 0.9913998 0.990653 1.0002484
000060 e9 00 84 3f 4f 80 7d 3f fa 68 7f 3f 0b 70 7f 3f
       1.0312778 0.9902391 0.99769557 0.9978034
000070 e8 f8 7e 3f 3a 7f 7d 3f 14 ac 7f 3f 0d 97 80 3f
       0.9959855 0.9902226 0.99871945 1.0046097
000080 3a 3f 7c 3f 63 98 7d 3f fe 2b 80 3f 0e 00 7b 3f
       0.98533976 0.9906065 1.0013425 0.9804696
000090 24 32 7c 3f 1f 01 7f 3f bd 1c 7f 3f 9e 1e 7e 3f
       0.9851401 0.99611086 0.99653226 0.9926547
0000a0 df 1c 80 3f 25 b9 80 3f b2 4a 81 3f 58 89 7f 3f
       1.0008811 1.0056502 1.010092 0.99818945
0000b0 b8 1e 84 3f c1 88 7d 3f 54 dc 80 3f 9b 09 80 3f
       1.0321875 0.99036795 1.0067239 1.0002931
0000c0 41 07 7e 3f 9f 43 81 3f ea 3f 80 3f 3f 81 7e 3f
       0.9922982 1.0098761 1.0019505 0.99415964
0000d0 53 1b 81 3f 2e 2b 7f 3f 74 fe 7a 3f 76 0d 80 3f
       1.0086464 0.9967526 0.98044515 1.0004108
0000e0 03 76 82 3f ba c6 7e 3f 40 43 7f 3f 9d a0 7d 3f
       1.0192264 0.9952198 0.9971199 0.990732
0000f0 fe 57 80 3f 35 ea 7f 3f be c7 7d 3f 47 60 81 3f
       1.0026853 0.99966747 0.9913291 1.0107507
000100 68 6f 7f 3f bc b5 7b 3f 46 e5 80 3f 98 12 81 3f
       0.9977937 0.9832418 1.0069969 1.0083799
000110 e3 75 80 3f c6 11 7d 3f 56 1c 81 3f 22 36 81 3f
       1.0035976 0.98855245 1.0086772 1.0094645
000120 2b 9a 7d 3f 33 96 80 3f 90 be 7d 3f d2 9b 7e 3f
       0.99063367 1.0045837 0.991189 0.9945651
000130 98 a7 81 3f d8 d8 80 3f f1 f1 82 3f f0 e5 80 3f
       1.012927 1.0066175 1.0230085 1.0070171
000140 8d 9a 81 3f 07 cf 7f 3f 90 c8 81 3f 23 97 7d 3f
       1.012529 0.99925274 1.0139332 0.9905874
000150 3e 67 7d 3f 99 80 80 3f 69 78 7e 3f d8 b2 7e 3f
       0.9898566 1.0039245 0.9940248 0.99491644
000160 00 57 80 3f 2d d5 80 3f 46 cd 7e 3f 5c 72 7e 3f
       1.002655 1.0065056 0.9953197 0.9939325
000170 b7 78 80 3f 40 88 80 3f b7 a3 7c 3f b7 01 81 3f
       1.0036839 1.004158 0.9868731 1.0078648
000180 72 0f 7f 3f 31 60 7d 3f 1a a8 7f 3f 4a 6f 80 3f
       0.9963294 0.989749 0.9986588 1.0033963
000190 a4 20 82 3f a9 2f 7f 3f 1a 29 80 3f 51 eb 82 3f
       1.0166211 0.996821 1.0012543 1.0228063
0001a0 a0 18 7c 3f 61 72 82 3f a7 b3 80 3f 63 f1 7b 3f
       0.98475075 1.0191156 1.0054826 0.984152
0001b0 6c fd 80 3f 60 f4 80 3f e9 58 81 3f 1c bc 7a 3f
       1.0077338 1.0074577 1.0105258 0.9794328
0001c0 a5 c8 80 3f d5 3e 82 3f 40 d4 81 3f ba e3 7d 3f
       1.0061232 1.0175425 1.0142899 0.9917561
0001d0 b8 53 7d 3f fd 45 82 3f f3 cd 7f 3f 79 da 80 3f
       0.9895587 1.0177609 0.9992363 1.0066673
0001e0 2d 0b 80 3f b0 38 7a 3f 5c 47 82 3f bb 31 7d 3f
       1.000341 0.9774275 1.0178027 0.9890401
0001f0 eb 50 82 3f 66 c6 7d 3f 45 e3 7e 3f a9 42 80 3f
       1.0180944 0.99130857 0.99565536 1.0020343
000200 5c 42 82 3f 41 48 7b 3f 3d 8c 81 3f 0b c7 7e 3f
       1.0176501 0.98157126 1.0120922 0.99522465
000210 39 88 81 3f 53 ff 81 3f 91 9d 7f 3f d7 f3 83 3f
       1.0119697 1.0156044 0.998498 1.0308789
000220 11 be 82 3f 23 45 7f 3f d2 4e 7c 3f 60 00 7b 3f
       1.0214254 0.9971487 0.9855777 0.9804745
000230 f7 92 81 3f b0 a1 7f 3f 39 40 80 3f 81 6c 7c 3f
       1.0122975 0.9985609 1.0019599 0.98603064
000240 b1 a7 81 3f b6 3d 80 3f f0 4d 81 3f f3 ee 7f 3f
       1.01293 1.0018833 1.010191 0.9997398
000250 15 1e 7f 3f 4e 7f 82 3f 3d d9 7e 3f 96 78 7f 3f
       0.99655277 1.01951 0.9955023 0.99793375
000260 f2 82 80 3f 78 0e 7e 3f 77 f2 7d 3f 8e e9 81 3f
       1.0039961 0.9924083 0.99198097 1.01494
000270 0a 0d 7f 3f fe cc 7e 3f f2 d9 7f 3f 83 95 82 3f
       0.9962927 0.99531543 0.99941933 1.0201877
000280 ea c5 7f 3f 46 4f 81 3f c8 30 7f 3f 71 c8 81 3f
       0.9991137 1.0102317 0.9968381 1.0139295
000290 e1 a2 80 3f b8 cc 7f 3f 80 a8 7f 3f 46 c0 7a 3f
       1.0049707 0.9992175 0.99866486 0.97949636
0002a0 98 a1 81 3f 3c 63 80 3f b4 17 7d 3f b1 ed 7c 3f
       1.012744 1.0030284 0.98864293 0.9880019
0002b0 54 56 7e 3f 31 db 80 3f 1b b9 80 3f 0b 8d 7e 3f
       0.99350476 1.0066892 1.005649 0.99433964
0002c0 40 30 7e 3f a5 e9 83 3f 4b f2 7e 3f a6 97 7b 3f
       0.99292374 1.0305678 0.9958846 0.9827827
0002d0 f2 93 7f 3f 61 f6 81 3f 15 46 7e 3f 05 2e 7f 3f
       0.9983512 1.0153314 0.99325687 0.99679595
0002e0 bf 92 80 3f f9 45 81 3f 37 55 81 3f b5 6d 81 3f
       1.0044783 1.0099479 1.010413 1.0111605
0002f0 52 ad 81 3f 8a 93 7f 3f 80 6d 80 3f 5c ac 7e 3f
       1.0131018 0.998345 1.0033417 0.9948175
000300 66 44 7b 3f d5 cb 7e 3f 98 c6 7e 3f eb 0f 7e 3f
       0.9815124 0.99529773 0.9952178 0.9924304
000310 01 15 79 3f 14 a9 7f 3f 84 04 7f 3f c6 f1 80 3f
       0.97297674 0.9986737 0.99616265 1.0073783
000320 a3 56 81 3f 32 3b 7e 3f a7 e8 81 3f de 23 7c 3f
       1.0104564 0.99309075 1.0149125 0.9849223
000330 36 25 80 3f 5d 10 80 3f 0a 8a 80 3f a1 20 80 3f
       1.0011356 1.0004994 1.0042126 1.0009958
000340 7e d7 7e 3f 2b 76 82 3f 9d b6 7d 3f 7b 78 7f 3f
       0.99547565 1.0192312 0.9910677 0.99793214
000350 8e a4 7e 3f 8a 1d 80 3f 10 5d 7c 3f eb 39 81 3f
       0.9946984 1.0009015 0.985795 1.00958
000360 55 b9 7d 3f 6a 43 80 3f 0e d9 7a 3f a7 34 7e 3f
       0.9911092 1.0020573 0.9798745 0.9929909
000370 24 e0 7d 3f 80 d6 81 3f 84 57 7d 3f d4 8e 7c 3f
       0.99170136 1.0143585 0.98961663 0.9865544
000380 ca 03 7b 3f 05 0a 80 3f 14 12 7e 3f a7 49 81 3f
       0.98052657 1.0003058 0.99246335 1.0100602
000390 f4 29 7c 3f d6 44 79 3f 52 13 7f 3f 1f a9 7d 3f
       0.98501515 0.9737066 0.99638855 0.99086183
0003a0 11 19 82 3f 9c 15 80 3f 72 0f 80 3f 9c 75 7e 3f
       1.01639 1.0006595 1.0004714 0.9939821
0003b0 ea 55 7e 3f 59 c2 80 3f 06 1c 7c 3f 13 4d 80 3f
       0.99349844 1.005931 0.9848026 1.0023521
0003c0 ca 66 82 3f cd 14 80 3f 2f 86 7c 3f 21 dd 7d 3f
       1.0187619 1.0006348 0.9864225 0.9916554
0003d0 ab 43 7f 3f 5b c8 80 3f 25 24 7c 3f 03 80 80 3f
       0.9971263 1.0061144 0.9849265 1.0039066
0003e0 5a 08 7a 3f 58 22 81 3f c6 94 7d 3f 2c 0a 80 3f
       0.97668993 1.0088606 0.99055135 1.0003104
0003f0 ee af 80 3f c3 86 80 3f 3a 04 7b 3f 6d cc 7e 3f
       1.005369 1.0041126 0.98053324 0.9953068
