diabetes.pt (torch, 6226 bytes, 6 tensors)

weight f4 [20, 8]
0	0xbe429d6f	-0.19005369
1	0xbeb411e3	-0.35169896
2	0x3e02bce6	0.12767372
3	0x3e16e185	0.14734466
4	0x3e52c5a7	0.20583211
5	0xbd8f50e6	-0.06997852
6	0xbf502f9d	-0.8132265
7	0xbb7b884e	-0.0038380804
8	0xbda32b83	-0.079672836
9	0xbe4a5592	-0.19759205
10	0x3d6a82a3	0.05725349
11	0xbe18c2e1	-0.1491809
12	0xbe3d67f6	-0.18496689
13	0xbd851a61	-0.06499172
14	0x3e7b5505	0.24544151
15	0xbe5a2e71	-0.21306778
16	0xbeece238	-0.4626634
17	0xbe62e658	-0.22158182
18	0x3ebb5fa6	0.3659641
19	0xbe303abd	-0.17209907
20	0x3ea51d72	0.32249027
21	0xbcb8cfbb	-0.022559991
22	0x3f5ddb92	0.8666316
23	0xbd43932c	-0.047747776
24	0x3e3510b2	0.1768215
25	0xbeab9c57	-0.33517715
26	0x3db2314c	0.08700809
27	0xbeae8caa	-0.34091693
28	0x3da2b24c	0.07944164
29	0xbe85398d	-0.2602047
30	0x3e9128bf	0.283514
31	0xbda33970	-0.0796994
32	0x3f0f022c	0.5586269
33	0x3e0fb43b	0.14033596
34	0x3e9acad1	0.30232862
35	0xbe0a30d0	-0.13495183
36	0xbedad74c	-0.42742383
37	0x3e730284	0.23731428
38	0xbf8a0bf9	-1.0784904
39	0xbea4bd1e	-0.32175535
40	0x3ec5cf5c	0.38634765
41	0x3e7ed942	0.24887565
42	0xbe5b26e0	-0.21401548
43	0xbc6cc3a9	-0.014450946
44	0x3db1a684	0.086743385
45	0xbe011bb8	-0.1260823
46	0x3f4e5125	0.80592567
47	0xbdf93222	-0.12167765
48	0x3f85a2ca	1.0440304
49	0xbedda854	-0.43292487
50	0x3e4211e1	0.18952133
51	0xbede21c4	-0.43385136
52	0xbc31987e	-0.01083958
53	0xbd0b7b83	-0.034053337
54	0xc007829b	-2.1173465
55	0x3f01de44	0.50729775
56	0x3ec4530d	0.38344613
57	0x3d2699d3	0.040674042
58	0x3e2be361	0.16785957
59	0x3e44e0fa	0.19226447
60	0xbd832c1b	-0.06404897
61	0x3db5a9bd	0.08870266
62	0x3eaab4a5	0.33340946
63	0x3f076d5c	0.52901244
64	0xbd8fe060	-0.07025218
65	0xbe5aa7e9	-0.21353115
66	0xbe27dc70	-0.16392684
67	0xbd1471b0	-0.036241233
68	0xbba79f40	-0.0051154196
69	0x3e252692	0.16127995
70	0x3cd9a0b0	0.02656588
71	0x3db9c700	0.09071159
72	0xbec4dee4	-0.38451302
73	0xbda83ea1	-0.082150705
74	0xbec3cb59	-0.3824108
75	0xbd4f88b7	-0.05066749
76	0x3e4ab6e0	0.19796324
77	0xbe55265e	-0.20815417
78	0xbf03a43e	-0.5142249
79	0x3efa13fa	0.48843366
80	0xbee632c4	-0.44960606
81	0x3e9fd0fc	0.3121413
82	0x3e053333	0.13007812
83	0x3dc1ccff	0.09462928
84	0xbed623ea	-0.41824275
85	0x3ed515e1	0.41618255
86	0xbfcb2007	-1.5869149
87	0x3f17c1fe	0.59280384
88	0x3ebb4ce3	0.36582097
89	0x3dd3e78c	0.103468984
90	0x3e2b1913	0.16708784
91	0x3d60970b	0.054831546
92	0x3e7b6f71	0.2455423
93	0xbe3bcc27	-0.18339597
94	0xbf885633	-1.0651306
95	0x3eafa5ed	0.3430628
96	0x3e3355f4	0.17513257
97	0x3e280b28	0.16410506
98	0xbebf1da9	-0.37327316
99	0xbe53dc61	-0.20689537
100	0xbd786580	-0.060643673
101	0xbecedacc	-0.40401304
102	0x3ff4776c	1.9098945
103	0x3f33336b	0.7000033
104	0xbf8e04dc	-1.1095233
105	0xbdb24e59	-0.0870635
106	0xbe8008b5	-0.25006643
107	0xbdc0a3bd	-0.094062306
108	0x3e8e5d8c	0.27805746
109	0xbea7e9a0	-0.3279543
110	0xbfe4fd11	-1.788973
111	0xbea2bcdf	-0.31784722
112	0xbe2ca955	-0.1686147
113	0x3f01ddd8	0.5072913
114	0xbd523fcd	-0.051330376
115	0xbe096143	-0.13416009
116	0x3e43449c	0.19069141
117	0xbebd1396	-0.36929005
118	0x3e0e268b	0.1388189
119	0xbed0586d	-0.40692464
120	0xbe9ee2b1	-0.31032327
121	0xbe105eab	-0.14098613
122	0xbeae1a47	-0.34004423
123	0xbd10f158	-0.035386413
124	0xbe3814b3	-0.17976646
125	0x3ea5aee5	0.32359996
126	0x3daa8d98	0.08327788
127	0xbe6dfffd	-0.23242183
128	0x3efbcdb8	0.49180388
129	0x3ea49a69	0.32149056
130	0xbe59954e	-0.21248361
131	0x3d7b18c5	0.06130292
132	0x3e4eb207	0.201851
133	0x3eae772f	0.34075305
134	0x3dddd5a0	0.10831761
135	0xbe48ca5d	-0.19608445
136	0x3f001edb	0.5004708
137	0xbe3c0429	-0.18360962
138	0xbd6332fd	-0.055468548
139	0x3e9ea8af	0.3098807
140	0xbe93ccbc	-0.28867137
141	0x3e52f9bb	0.20603077
142	0xbf273912	-0.6532146
143	0xbd4bbb95	-0.04973944
144	0x3e7c19f4	0.24619275
145	0x3e586c1c	0.2113499
146	0xbe953c01	-0.29147342
147	0x3dd86cda	0.10567637
148	0x3ebea41a	0.37234575
149	0xbd92f179	-0.071749635
150	0x3fd74dda	1.6820633
151	0x3ed278fa	0.41107923
152	0x3d066e36	0.03281995
153	0xbeaf2d76	-0.3421437
154	0xbe8be932	-0.2732635
155	0x3df1d056	0.11807315
156	0x3dd1f981	0.10252667
157	0xbddf25eb	-0.10895904
158	0xbf22930f	-0.63505644
159	0x3e845921	0.2584925

bias f4 [20]
0	0x3e86fe37	0.26365826
1	0x3e83718e	0.25672573
2	0x3f237128	0.6384454
3	0x3d194d18	0.037427038
4	0x3da3c6e3	0.07996919
5	0xbf40a55b	-0.7525231
6	0x3ecc20ad	0.3986868
7	0xbf7db51e	-0.9910449
8	0xbe05a595	-0.13051446
9	0x3f2a98e8	0.66639566
10	0xbed5eb3e	-0.41781038
11	0x3faace6d	1.3344246
12	0x3e4bcb68	0.19901812
13	0xbf5366dd	-0.8257883
14	0xbd2e7927	-0.04259601
15	0xbeb4696d	-0.35236683
16	0xbe0fd7bd	-0.14047141
17	0x3cf2981a	0.029613543
18	0xbfe52386	-1.7901466
19	0xbdfdf347	-0.12399917

weight f4 [20, 20]
0	0xbdba6952	-0.091021195
1	0xbd2668b8	-0.04062721
2	0xbdfa9b98	-0.122367084
3	0xbe3408d9	-0.175815
4	0x3c28b33b	0.010296638
5	0xbd9caf0c	-0.07650575
6	0x3c954423	0.018220967
7	0xbe7a6c7e	-0.24455449
8	0x3e2e37ac	0.17013425
9	0xbd778a9e	-0.06043493
10	0xbdef201a	-0.11676045
11	0x3e217231	0.15766217
12	0xbde08a23	-0.109638475
13	0xbdc0bfac	-0.094115585
14	0x3da82fc9	0.08212239
15	0x3e24aeaa	0.16082254
16	0x3c582943	0.013193431
17	0xbd041215	-0.032243807
18	0xbe926430	-0.28592062
19	0x3db31fca	0.08746298
20	0xbeea6f3d	-0.45787993
21	0x3dd578a2	0.104233995
22	0xbe7f4138	-0.24927223
23	0xbdd9171f	-0.10600113
24	0x3dc9ea6b	0.09859165
25	0x3e55ebc6	0.20890722
26	0xbf5d532a	-0.86455023
27	0x3d7c14e5	0.061543364
28	0xbe273d54	-0.16331989
29	0x3d5499c2	0.051904447
30	0x3c83f746	0.01610912
31	0xbe70ae57	-0.23504005
32	0xbe97f82a	-0.29681522
33	0x3e0b1b36	0.13584599
34	0x3b9be515	0.0047575333
35	0x3d324c48	0.04352978
36	0x3dbc264a	0.091869906
37	0xbf1445f4	-0.5791924
38	0x3e34958d	0.17635174
39	0x3bbd8e47	0.005784783
40	0x3e92ff65	0.28710476
41	0x3e013cfb	0.12620918
42	0xbebd7ca3	-0.37009153
43	0x3e556670	0.20839858
44	0xbea0bbfc	-0.3139342
45	0xbe6cfc38	-0.23143089
46	0x3fa7db0b	1.3113722
47	0x3e0c5d74	0.13707525
48	0xbcf6eb88	-0.030141607
49	0x3e9618f2	0.29315907
50	0xbd8f5a02	-0.069995895
51	0x3d16d3ab	0.036822956
52	0x3e25fbc5	0.16209324
53	0xbf87273f	-1.0558852
54	0x3d39053c	0.045171008
55	0xbd9f2a0c	-0.07771692
56	0x3dd5a31b	0.104315005
57	0xbee0ebf8	-0.4393003
58	0x3cf3ddcd	0.029768849
59	0xbe1e1591	-0.15437914
60	0x3d36d869	0.04463998
61	0xbe2e829e	-0.17042014
62	0xbe8ca2d7	-0.27467987
63	0x3d2690d0	0.040665448
64	0xbdaed86f	-0.08537375
65	0xbc9b9e0d	-0.018996263
66	0xbd4e1d01	-0.05032063
67	0x3d93f430	0.072243094
68	0x3e21de4c	0.15807456
69	0x3e0cdf99	0.1375717
70	0xbc953e35	-0.01821814
71	0xbe08f1d7	-0.13373505
72	0xbde983ec	-0.11402115
73	0x3e1986da	0.14992848
74	0xbe8d5f76	-0.27611893
75	0xbcdc1588	-0.026865736
76	0xbdbecbf2	-0.09316243
77	0x3d1a10d5	0.03761371
78	0x3dfee00e	0.12445079
79	0x3d86b298	0.06577033
80	0x3e4e5954	0.20151263
81	0xbdf58089	-0.11987407
82	0x3d35893d	0.044320334
83	0x3e471c0c	0.19444293
84	0xbd52b96e	-0.05144637
85	0x3d09e79a	0.033668138
86	0x3f658a66	0.89664304
87	0x3e72af8b	0.23699777
88	0x3d336a70	0.04380268
89	0x3edf3c9f	0.43600938
90	0x3e0bfd09	0.13670744
91	0x3e47bd9a	0.19505921
92	0x3e3a2811	0.18179347
93	0x3d2f909a	0.042862512
94	0xbe30e752	-0.17275742
95	0xbe0ebf28	-0.13940108
96	0xbe18790d	-0.14889927
97	0x3f00c15f	0.5029506
98	0xbe69b897	-0.22824322
99	0xbeb1d9df	-0.34736535
100	0x3d95d8ab	0.07316717
101	0xbdd1cbbc	-0.102439374
102	0x3dc964c3	0.09833672
103	0x3d323d00	0.043515205
104	0x3e31ee5e	0.17376086
105	0x3e2fa443	0.17152505
106	0x3f99812b	1.1992544
107	0xbd83195a	-0.0640132
108	0xbd99ea9e	-0.07515453
109	0x3d11f63e	0.035635225
110	0x3e3d0b0f	0.1846125
111	0xbd2b16ea	-0.0417699
112	0x3d818cc2	0.063256755
113	0x3d99fce6	0.0751894
114	0x3e251608	0.16121686
115	0xbc1b2630	-0.009469554
116	0x3dfef61b	0.12449285
117	0x3ef9169a	0.48650056
118	0xbe140286	-0.14454088
119	0xbe8b34bb	-0.27188668
120	0xbe0df828	-0.13864195
121	0x3c25c550	0.010117844
122	0x3d9d79a4	0.07689217
123	0x3dbc7e3c	0.09203765
124	0x3e0facd0	0.14030766
125	0x3bc4b77b	0.006003318
126	0xbd7d1d5a	-0.06179557
127	0x3da3f639	0.080059476
128	0xbde12fbc	-0.10995433
129	0xbda09967	-0.07841759
130	0xbe511c18	-0.20420873
131	0xbe0b56b2	-0.1360729
132	0xbda33496	-0.07969014
133	0xbd18088c	-0.037117526
134	0x3d6d5391	0.057941023
135	0xbd3554e8	-0.044270426
136	0xbe1df89c	-0.15426868
137	0xbe1c60d9	-0.1527132
138	0xbe312b6c	-0.1730172
139	0xbe2d5290	-0.16926026
140	0xbe292027	-0.16516171
141	0x3d627498	0.055286974
142	0xbe384cfa	-0.17998114
143	0x3dbe9ddc	0.09307453
144	0x3e4847dc	0.19558662
145	0x3db570e8	0.08859426
146	0xbdf5de64	-0.12005308
147	0xbda76a62	-0.08174588
148	0xbdbc7d2c	-0.09203562
149	0xbcebb1e0	-0.02877134
150	0xbe102f79	-0.1408061
151	0x3a2b7e00	0.0006541908
152	0x3d2ef650	0.04271537
153	0xbced3f58	-0.028960869
154	0x3dea9d78	0.11455816
155	0x3e5fb26e	0.2184541
156	0xbddd4b54	-0.10805383
157	0xbdd247bb	-0.10267588
158	0xbdeddaf8	-0.116140306
159	0xbd472de0	-0.048627734
160	0x3d891d0c	0.066949934
161	0xbe3018b2	-0.1719692
162	0xbe5b7c49	-0.2143413
163	0xbe2ef057	-0.1708387
164	0x3dd74114	0.105104595
165	0xbe602494	-0.21888953
166	0xbcad1640	-0.021128774
167	0xbc6f2160	-0.01459536
168	0xbd448af0	-0.047984064
169	0x3e0a8910	0.13528848
170	0xbd49fd9c	-0.049314126
171	0xbd834da6	-0.06411295
172	0x3e405160	0.18781042
173	0xbe41e412	-0.18934658
174	0xbe175d99	-0.14781798
175	0x3d6d28f8	0.0579004
176	0xbe3f3972	-0.18674257
177	0x3dd51328	0.104040444
178	0xbe0c21b6	-0.13684735
179	0xbdf42200	-0.119205475
180	0xbf0e51ac	-0.5559337
181	0xbe0772dc	-0.13227409
182	0xbf370bd8	-0.7150245
183	0x3e509110	0.20367837
184	0xbef82952	-0.48469025
185	0xbe89c944	-0.26911366
186	0x3fadfa9b	1.3592104
187	0x3ed1ac68	0.40951848
188	0x3e00457e	0.12526509
189	0xbde14364	-0.10999182
190	0x3e52795b	0.20554106
191	0x3e7a0c65	0.2441879
192	0xbf9c37d4	-1.2204537
193	0xbd2ac88c	-0.041695163
194	0xbf9b8adf	-1.2151755
195	0xbe21037d	-0.15723987
196	0xbfb4af57	-1.411601
197	0x3e7c3c8e	0.24632475
198	0xbfcda07b	-1.60646
199	0xbd25ec7c	-0.040508732
200	0x3e33df16	0.1756557
201	0xbdcaecaa	-0.09908421
202	0x3e0338a7	0.1281458
203	0xbd12949c	-0.035786256
204	0x3e65d786	0.22445497
205	0xbea27ac3	-0.31734285
206	0xbf75a684	-0.9595721
207	0xbc2c69ee	-0.0105233025
208	0x3db16788	0.08662325
209	0xbee673d1	-0.45010236
210	0x3dbb1322	0.09134509
211	0x3ddae496	0.106881306
212	0x3cd1c155	0.025604883
213	0xbe4ae67e	-0.19814488
214	0xbdf6ac15	-0.12044541
215	0xbd9b1998	-0.07573241
216	0x3d50f060	0.05101049
217	0xbf1f2c22	-0.62176716
218	0xbebd7026	-0.36999625
219	0xbc118ef4	-0.00888418
220	0x3dda889d	0.10670588
221	0xbe1dc2b0	-0.15406299
222	0x3c225c98	0.009909771
223	0x3db125e0	0.08649802
224	0x3d5a36de	0.05327498
225	0xbc878f03	-0.016547685
226	0xbf69bc07	-0.9130253
227	0x3e38be01	0.1804123
228	0x3e2c95c8	0.16854012
229	0x3ce0dbf3	0.02744863
230	0xbd9e719c	-0.07736513
231	0x3d208da7	0.03919759
232	0x3e26a187	0.16272555
233	0x3d902822	0.07038905
234	0xbdebfe43	-0.11523106
235	0x3e61b678	0.22042263
236	0x3db3d8c9	0.08781583
237	0xbf4bd488	-0.7962117
238	0xbc1c8cbd	-0.009555039
239	0x3dbba7e9	0.09162886
240	0x3e0cac8f	0.13737701
241	0xbe4b00f8	-0.19824588
242	0x3db2d214	0.087314755
243	0xbdd84d14	-0.105615765
244	0x3c81d719	0.015849637
245	0xbd906835	-0.07051126
246	0xbf8ddf34	-1.1083741
247	0x3e8532f4	0.26015437
248	0x3d3da238	0.046297282
249	0xbe4e688b	-0.20157067
250	0xbcb9ce5c	-0.022681408
251	0x3d80c6c5	0.06287912
252	0x3e3b03e1	0.18263198
253	0x3e057492	0.1303275
254	0xbe785b6a	-0.24253622
255	0x3d4e4ec8	0.0503681

bias f4 [20]
0	0xbe4bc126	-0.19897899
1	0xbf0193f6	-0.50616395
2	0x3febfc67	1.8436402
3	0x3dacc615	0.08436219
4	0x3f267529	0.6502252
5	0x3f6a5b49	0.9154554
6	0x3d47ef77	0.048812356
7	0x3dd33574	0.1031293
8	0x3e207652	0.15670136
9	0xbf650fba	-0.8947712
10	0xbee14a2e	-0.44001907
11	0xbf260332	-0.64848626
12	0xbf869a75	-1.0515887
13	0xbf32f149	-0.6989942
14	0x3f4b6ba6	0.79461133
15	0xbde60273	-0.11230936
16	0xbf6d6017	-0.92724746
17	0xc04bce0d	-3.1844513
18	0x3f410ba1	0.7540837
19	0xbf53ff2f	-0.82811254

weight f4 [2, 20]
0	0x3e1fbec2	0.15600112
1	0xbf03ff8e	-0.5156182
2	0x3f071a60	0.5277462
3	0xbe13bcd3	-0.144275
4	0x3ea617f1	0.3244014
5	0x3e4cfe12	0.20018795
6	0xbdab4646	-0.08363013
7	0x3d44d128	0.04805103
8	0x3e23173a	0.15926829
9	0xbf877367	-1.0582093
10	0xbea252f7	-0.31703922
11	0xbd707144	-0.05870177
12	0xbe19b75a	-0.1501135
13	0xbe925b2a	-0.28585178
14	0x3dc64ead	0.09682975
15	0x3d9884f9	0.074472375
16	0xbf1bedc9	-0.60909706
17	0xbf065143	-0.52467746
18	0x3f852a9d	1.040363
19	0xbe6935d0	-0.22774434
20	0x3e7ae527	0.24501477
21	0x3ec342cd	0.38136902
22	0xbf18ddba	-0.5971333
23	0xbdb72e56	-0.08944385
24	0xbe731558	-0.2373861
25	0xbe8fc716	-0.28081578
26	0xbe27d91b	-0.16391413
27	0xbdf4aec7	-0.11947399
28	0x3dd09f58	0.101866424
29	0x3fa87b82	1.3162692
30	0x3e46efe4	0.19427449
31	0x3d6617ad	0.056174923
32	0x3e661a2a	0.22470918
33	0x3e2978ed	0.16550036
34	0xbe518777	-0.20461832
35	0x3d8ae0c8	0.06781155
36	0x3f3eaa4e	0.74478614
37	0x3f0a5eaf	0.54050726
38	0xbf85073b	-1.0392832
39	0x3d790c8d	0.060802985

bias f4 [2]
0	0x3f5a4179	0.85256153
1	0xbf62d5e1	-0.88607603
