improved_diabetes_model_weights.pt (torch, 320940 bytes, 26 tensors)

fc1.weight f4 [128, 8]
-0.090470925 -0.19771948 0.2036537 -0.05460095 0.2709806 -0.008423132 0.12050912 0.053144798
-0.029378988 -0.1992012 0.1394762 -0.116524704 -0.10030364 -0.051868934 0.2772745 -0.1716202
0.035594005 -0.16668077 0.3206648 -0.16369267 0.237879 -0.20940849 0.02676958 -0.016755175
0.11074328 -0.31183147 0.10364271 -0.3679934 0.0724034 -0.25907677 0.17812343 -0.12576045
0.23000196 0.17133103 0.3059993 -0.10624832 -0.2744624 0.3211082 -0.1108367 -0.27004293
0.124091096 0.2379223 -0.046450548 -0.10834276 0.105753995 -0.078460686 -0.21759887 0.0072944076
-0.041542485 -0.3187068 0.28114185 -0.0793999 -0.33848354 -0.19559665 -0.32529792 0.07461973
-0.1837629 0.23265286 0.157928 -0.01588695 0.0199951 0.20274705 0.20991662 0.30492213
-0.06512101 -0.1968729 -0.14899787 -0.034343425 0.0105293775 0.19122124 0.016100358 0.12824808
0.021918986 0.23371023 -0.19620275 -0.07710065 0.27962774 -0.18330784 0.425599 0.40997517
-0.0067847585 0.39493376 0.0306195 0.124788076 -0.2595344 0.22686554 -0.2310299 0.39785853
-0.018385187 0.19694385 0.2847877 0.13778448 0.29982442 -0.09342436 0.36486825 0.36086252
0.22757661 0.25857615 -0.2579263 -0.049992085 0.014954278 -0.38527867 -0.10957651 0.3736238
-0.28639323 -0.25962582 -0.26608136 0.17923826 0.22604755 -0.3026728 -0.091469556 0.1296909
0.15737347 0.35041183 0.08321223 0.07934942 0.19658989 -0.24551119 -0.15698719 0.15921317
-0.31861472 -0.114962764 -0.3045187 -0.010229561 -0.18913354 0.38103735 0.05997914 -0.25358695
-0.16479503 0.29358014 -0.21006474 0.35844666 0.2529048 0.19417937 0.0588457 -0.09774224
0.25715607 -0.21628861 0.1367494 0.2506157 -0.14068423 0.052588988 -0.08714839 0.039724443
-0.17168616 0.2894759 -0.34157205 -0.058198463 0.31361306 0.25260228 0.37628028 0.1977369
-0.13335387 -0.2735585 -0.2436646 0.24364567 0.1415417 0.049276218 -0.19565725 0.18392614
0.09312608 0.31906787 0.21574453 0.022885295 0.06322578 0.09347979 0.1974894 -0.08962832
-0.21961403 -0.23644365 0.05276339 -0.08633117 0.036768213 0.13534136 -0.45112798 -0.4266496
-0.095048584 0.15326437 0.03522769 -0.023862597 -0.029996648 -0.08794703 -0.1314271 -0.33224508
0.10192901 -0.025070297 0.14512223 -0.32092267 0.23503065 0.02337893 -0.015756411 0.36968094
-0.07199513 -0.049995456 0.18769835 0.26381266 0.07590944 -0.058403533 -0.384286 0.30693585
0.1785426 0.09177366 -0.12906206 -0.10844476 0.025677772 0.3518423 0.1424153 0.11360457
-0.31277737 -0.23535027 0.14388952 -0.26310727 -0.09089986 -0.23034321 0.06243583 0.058415208
0.17704713 0.339179 0.23116465 0.039854188 -0.109459884 0.28903514 -0.038017016 0.35191032
-0.29983124 -0.31527478 -0.06602785 0.30320847 -0.053105056 -0.1661119 -0.20532331 0.114128634
0.29130736 -0.35798207 0.18253551 -0.1782217 0.15444183 0.014591268 -0.086344585 -0.1346555
0.21641615 -0.2968213 -0.33777806 0.07688469 -0.05301621 -0.13365188 -0.0015632041 0.26223788
0.29255927 0.16478454 0.106048204 -0.08091618 -0.21141268 0.28395504 -0.23212257 -0.0064962367
00000000: d248 b9bd fa76 4abe 988a 503e 3fa5 5fbd
00000010: f8bd 8a3e 2d01 0abc 7ccd f63d 5cae 593d
00000020: 34ac f0bc 66fb 4bbe d9d2 0e3e 81a4 eebd
00000030: ff6b cdbd 8574 54bd ecf6 8d3e 35bd 2fbe
00000040: 05cb 113d 5dae 2abe 2d2e a43e 0d9f 27be
00000050: 8d96 733e 2e6f 56be e14b db3c 2642 89bc
00000060: 5fcd e23d 60a8 9fbe a142 d43d a269 bcbe
00000070: 3c48 943d b6a5 84be fd65 363e 59c7 00be
00000080: a285 6b3e 6771 2f3e f1ab 9c3e b898 d9bd
00000090: 5686 8cbe 4b68 a43e 5afe e2bd 1143 8abe
000000a0: 7923 fe3d e7a1 733e ee42 3ebd cfe2 ddbd
000000b0: 8d95 d83d ffaf a0bd 3dd2 5ebe ed05 ef3b
000000c0: 7428 2abd 8a2d a3be d3f1 8f3e 6a9c a2bd
000000d0: b74d adbe 7d4a 48be 738d a6be 3bd2 983d
000000e0: 572c 3cbe 8d3c 6e3e e1b7 213e 5925 82bc
000000f0: c4cc a33c ec9c 4f3e 62f4 563e c11e 9c3e
00000100: 2a5e 85bd 0d99 49be e692 18be b1ab 0cbd
00000110: 6983 2c3c 80cf 433e e6e4 833c 7753 033e
00000120: 728f b33c bc51 6f3e 60e9 48be f2e6 9dbd
00000130: 5e2b 8f3e 0db5 3bbe 1de8 d93e 44e8 d13e
00000140: ae52 debb c234 ca3e bfd5 fa3c e490 ff3d
00000150: b1e1 84be 714f 683e 1a93 6cbe 1db4 cb3e
00000160: 889c 96bc a6ab 493e b2cf 913e 6017 0d3e
00000170: 9682 993e 4555 bfbd 03d0 ba3e f9c2 b83e
00000180: d809 693e 1864 843e ea0e 84be 80c4 4cbd
00000190: ca02 753c 3f43 c5be a669 e0bd 9e4b bf3e
000001a0: 22a2 92be aded 84be d13b 88be 3c8a 373e
000001b0: 0279 673e eef7 9abe 6454 bbbd b1cd 043e
000001c0: 8326 213e 2e69 b33e 2c6b aa3d f381 a23d
000001d0: dc4e 493e 4967 7bbe 40c1 20be c708 233e
000001e0: 7821 a3be 9971 ebbd e0e9 9bbe e399 27bc
000001f0: 39ac 41be 5417 c33e b0ac 753d 26d6 81be
00000200: 07c0 28be 2350 963e 361b 57be 5286 b73e
00000210: bd7c 813e f5d6 463e 3008 713d 152d c8bd
00000220: f6a9 833e c37a 5dbe 0908 0c3e b350 803e
00000230: 870f 10be 8d67 573d db7a b2bd 19b6 223d
00000240: 7fce 2fbe 2f36 943e 88e2 aebe 8361 6ebd
00000250: e491 a03e 1655 813e cfa7 c03e 8b7b 4a3e
00000260: eb8d 08be dc0f 8cbe 3783 79be 407e 793e
00000270: 4ff0 103e dcd5 493d 605a 48be 2257 3c3e
00000280: e3b8 be3d dd5c a33e 22ec 5c3e f179 bb3c
00000290: 857c 813d 5572 bf3d a93a 4a3e 0d8f b7bd
000002a0: 80e2 60be 491e 72be 6d1e 583d 65ce b0bd
000002b0: 449a 163d ed96 0a3e 3ffa e6be d171 dabe
000002c0: d5a8 c2bd 56f1 1c3e e94a 103d 7e7b c3bc
000002d0: 88bb f5bc 931d b4bd d394 06be 071c aabe
000002e0: 28c0 d03d 3960 cdbc ec9a 143e fa4f a4be
000002f0: e0ab 703e 2b85 bf3c 9713 81bc d246 bd3e
00000300: 2f72 93bd 09c8 4cbd ff33 403e 7412 873e
00000310: 6976 9b3d 8b38 6fbd 22c1 c4be b226 9d3e
00000320: dfd3 363e d4f3 bb3d d828 04be 4918 debd
00000330: 315a d23c ad24 b43e 51d5 113e 83a9 e83d
00000340: 5b24 a0be a9ff 70be c657 133e ffb5 86be
00000350: b529 babd 17df 6bbe b6bc 7f3d c944 6f3d
00000360: d84b 353e dfa8 ad3e 6db6 6c3e 253e 233d
00000370: 812c e0bd 6afc 933e bbb7 1bbd 972d b43e
00000380: 7b83 99be b26b a1be 9c39 87bd 243e 9b3e
00000390: b084 59bd 3d19 2abe 4640 52be 46bc e93d
000003a0: 3d26 953e 6d49 b7be 97ea 3a3e c07f 36be
000003b0: 0026 1e3e 3710 6f3c 6ed5 b0bd 22e3 09be
000003c0: 329c 5d3e f6f8 97be 3ff1 acbe b875 9d3d
000003d0: 8727 59bd 0adc 08be 6de4 ccba 0b44 863e
000003e0: 54ca 953e 47bd 283e cd2f d93d 62b7 a5bd
000003f0: 917c 58be 8e62 913e 8ab1 6dbe 62de d4bb

fc1.bias f4 [128]
0.11138396 0.12354634 -4.683004e-05 0.076431796 1.5798106e-07 -0.11392695 -0.10241138 0.0148248095
2.559067e-06 -0.005277197 0.15947126 0.040847834 0.07411699 0.10789812 -0.20333779 1.52233715e-05
-0.20071949 0.023585785 0.030813927 -2.7645221e-05 -0.012550514 0.068055555 -0.027778164 -0.19595934
-0.21685794 -0.0007012976 -0.08017829 -0.16730879 -0.19964294 -0.11333146 -0.16592945 0.2118716
0.015429786 -0.034715597 0.00015200645 0.12879927 0.012248254 0.021111574 -0.13434586 -0.036804963
-0.2047011 -0.025156712 0.15250064 -1.3854611e-05 0.0010172895 0.22909352 0.00014289969 -0.012686182
8.673637e-07 -0.004559253 0.06633175 -0.23049912 0.012438349 0.14597635 -0.12466139 -0.00010047731
0.23572287 -0.16141592 1.4197293e-06 -0.0030180998 -0.163936 0.16532296 -0.14104989 -0.041348994
-0.20808154 0.06731828 0.21229719 0.10363423 0.08995628 -0.052392133 -0.11458631 -9.078619e-05
0.21853328 0.08767988 -0.101967074 0.14882447 -0.003322395 -0.07862345 -0.040520426 0.0322315
-0.050382264 0.0009982514 -0.20210755 0.16831663 0.0006860881 0.16248493 0.019055482 0.094862044
0.0042864555 0.098934025 0.24445848 0.24692918 0.11375411 0.17256303 -0.002810502 -0.079161346
-0.08054776 -0.14716533 0.019143112 -0.13275549 0.11449169 4.593188e-05 0.23815076 0.08653376
0.16479476 2.5733243e-07 0.15241638 -0.14569896 0.010303993 0.19858663 -0.12943436 -0.0026362082
-0.17183845 -3.6698304e-05 0.19889888 -0.14552942 -2.0617921e-07 0.1296102 0.010952632 -0.15197039
0.043971796 -0.12089924 0.0096368985 -0.22760712 0.2282221 -0.030667996 0.03426672 0.0015786481
00000000: 461d e43d dd05 fd3d 5f6b 44b8 4688 9c3d
00000010: 81a1 2934 8852 e9bd 0fbd d1bd c2e3 723c
00000020: 70bc 2b36 56ec acbb 6f4c 233e 0f50 273d
00000030: a6ca 973d b1f9 dc3d c837 50be e267 7f37
00000040: 6989 4dbe fa36 c13c 7d6d fc3c a9e7 e7b7
00000050: aca0 4dbc b660 8b3d 088f e3bc 91a9 48be
00000060: 0210 5ebe 49d7 37ba 8434 a4bd ff52 2bbe
00000070: 336f 4cbe 531a e8bd 69e9 29be def4 583e
00000080: 37cd 7c3c f131 0ebd ec63 1f39 f5e3 033e
00000090: e7ac 483c 2ef2 ac3c f691 09be cdc0 16bd
000000a0: 2a9d 51be 7315 cebc 2129 1c3e 1a71 68b7
000000b0: 9256 853a 7e97 6a3e 58d7 1539 b4d9 4fbc
000000c0: c8d4 6835 c965 95bb f1d8 873d f607 6cbe
000000d0: 38ca 4b3c d37a 153e 794e ffbd 58b7 d2b8
000000e0: 5661 713e 374a 25be 878d be35 50cb 45bb
000000f0: d7de 27be 6c4a 293e 626f 10be 905d 29bd
00000100: 5413 55be 2bde 893d 6f64 593e 2f3e d43d
00000110: 003b b83d 2299 56bd 3aac eabd 7764 beb8
00000120: 30c7 5f3e 8291 b33d 1dd4 d0bd 7165 183e
00000130: 8abc 59bb 5505 a1bd bff8 25bd 2d05 043d
00000140: a25d 4ebd c2d7 823a 48f5 4ebe 325b 2c3e
00000150: 98da 333a 7362 263e 3e1a 9c3c 0847 c23d
00000160: 6575 8c3b ec9d ca3d 5353 7a3e 01db 7c3e
00000170: eaf7 e83d 5db4 303e 6630 38bb 581f a2bd
00000180: 39f6 a4bd 82b2 16be 04d2 9c3c 0ef1 07be
00000190: 9f7a ea3d fba6 4038 cbdd 733e 9d38 b13d
000001a0: f5bf 283e 8027 8a34 0a13 1c3e 1c32 15be
000001b0: 14d2 283c 4b5a 4b3e 718a 04be 3cc4 2cbb
000001c0: 6bf6 2fbe 81ec 19b8 26ac 4b3e aa05 15be
000001d0: 1c62 5db4 89b8 043e ab72 333c 209e 1bbe
000001e0: c51b 343d 059a f7bd 15e4 1d3c d711 69be
000001f0: 0eb3 693e 733b fbbc 435b 0c3d a4ea ce3a

bn1.weight f4 [128]
0.9696431 0.96090984 1.0035689 1.0254797 0.9796364 0.99891466 0.96065027 1.0191712
1.0134478 0.9939554 0.99280405 0.97502077 1.019814 0.9711237 0.9815455 0.9774506
1.007693 0.9776523 0.96725684 0.99513996 1.0283028 1.0119324 1.0052484 0.98461366
0.98763055 1.0305562 0.9979982 1.007955 1.0019675 0.9785856 1.0281968 0.98965883
1.0173917 1.003113 0.9827903 0.98825204 0.9881164 0.96881104 1.0100836 0.9814744
0.96974206 1.0405642 1.0220618 0.9638331 0.9669701 0.9965601 0.9639508 0.9824514
0.9845881 0.98772246 1.0134114 1.032162 0.9829916 0.9927064 1.005757 1.023368
1.0173843 0.9828842 1.0019907 0.98347974 1.0063906 0.9888099 0.9812644 0.9870261
0.97615194 1.0275375 1.0361778 0.9898682 1.0136143 1.0041674 0.98732907 0.9753599
0.9897031 0.9953825 1.0004308 0.98901135 0.98894936 0.98157156 0.99597776 0.977391
1.0011687 1.0124357 1.0182179 0.9689258 0.98585045 0.9910315 0.9885027 1.0292786
0.98361325 0.9950041 0.96569765 0.9905715 0.9910883 0.9832182 1.0014561 0.9862858
1.0147308 0.97791004 0.98512936 0.9920543 0.9579375 0.9731294 0.9924505 1.000914
1.0137718 0.9802 1.0106138 0.98439306 1.0126238 0.99661463 1.0156577 1.0010219
0.975769 0.9881822 1.023468 0.9681989 0.9796883 0.98750293 0.9900947 0.9740718
1.0095484 1.0212936 0.9683116 1.0435365 1.0559615 1.0048065 0.9937805 0.9970573
00000000: 883a 783f 30fe 753f f274 803f eb42 833f
00000010: 73c9 7a3f dfb8 7f3f 2ded 753f 3474 823f
00000020: a8b8 813f dc73 7e3f 6828 7e3f f69a 793f
00000030: 4489 823f 909b 783f 9146 7b3f 343a 7a3f
00000040: 16fc 803f 6c47 7a3f 259e 773f 7ec1 7e3f
00000050: 6d9f 833f 0087 813f fbab 803f a40f 7c3f
00000060: 5bd5 7c3f 44e9 833f cf7c 7f3f ab04 813f
00000070: 7940 803f 9684 7a3f f49b 833f 485a 7d3f
00000080: e439 823f 0266 803f 2598 7b3f 16fe 7c3f
00000090: 32f5 7c3f 0004 783f 6b4a 813f e841 7b3f
000000a0: 0441 783f 3531 853f ecd2 823f c4bd 763f
000000b0: 5a8b 773f 901e 7f3f 7bc5 763f ef81 7b3f
000000c0: f70d 7c3f 61db 7c3f 77b7 813f e21d 843f
000000d0: 56a5 7b3f 0222 7e3f a5bc 803f b9fd 823f
000000e0: a639 823f 4d9e 7b3f 3b41 803f 54c5 7b3f
000000f0: 68d1 803f a522 7d3f 2534 7b3f bead 7c3f
00000100: 18e5 793f 5986 833f 79a1 843f 0168 7d3f
00000110: 1dbe 813f 8f88 803f 99c1 7c3f 30b1 793f
00000120: 2f5d 7d3f 63d1 7e3f 1e0e 803f d92f 7d3f
00000130: c92b 7d3f 4648 7b3f 66f8 7e3f 4c36 7a3f
00000140: 4c26 803f 7e97 813f f754 823f 850b 783f
00000150: b260 7c3f 3eb4 7d3f 830e 7d3f 67bf 833f
00000160: 14ce 7b3f 97b8 7e3f f637 773f 1896 7d3f
00000170: f6b7 7d3f 30b4 7b3f b72f 803f 3a7d 7c3f
00000180: b3e2 813f 5058 7a3f 7031 7c3f 45f7 7d3f
00000190: 643b 753f 021f 793f 3c11 7e3f f31d 803f
000001a0: 46c3 813f 63ee 7a3f cb5b 813f 2f01 7c3f
000001b0: a89d 813f 2322 7f3f 1201 823f 7c21 803f
000001c0: ffcb 793f 82f9 7c3f 0001 833f e2db 773f
000001d0: dacc 7a3f fecc 7c3f d976 7d3f c55c 793f
000001e0: e238 813f c0b9 823f 45e3 773f 9b92 853f
000001f0: bf29 873f 809d 803f 6668 7e3f 263f 7f3f

bn1.bias f4 [128]
-0.015872033 -0.05102437 0.0023108998 0.045373235 -0.020435153 0.0074997526 -0.060232643 -0.017865255
-0.027081009 -0.050551973 -0.03526142 0.015846169 -0.04164493 -0.0063171773 -0.003570759 -0.03610782
0.006188587 -0.051452104 -0.028521372 -0.053886324 -0.043550458 0.022899581 -0.043390043 -0.026725946
-0.02656488 0.049378037 -0.022294326 -0.006284417 -0.02139834 -0.044678617 -0.0048349937 -0.028622855
-0.028139835 -0.008850778 -0.021709397 -0.016907712 -0.0056854202 -0.057187665 -0.017871292 -0.03065539
-0.0381106 -0.005126314 -0.06662983 0.008722872 -0.039918177 -0.053566337 -0.04366537 0.02419343
-0.017678492 -0.04124754 -0.03541714 -0.018805886 -0.038316656 -0.011187908 -0.014122367 -0.030519638
-0.020329077 -0.023594508 -0.0024086225 -0.035531495 -0.023334863 -0.02613935 -0.03044462 -0.036445316
-0.02654298 -0.03875907 -0.054650415 -0.04463952 -0.019122198 0.0023492924 -0.02337737 -0.0236791
-0.055058457 -0.012786834 -0.018308457 -0.011566753 -0.028080126 -0.0029332177 -0.028911361 -0.0008196865
0.003553653 -0.055805888 -0.038942523 -0.057462912 -0.044129834 -0.026931731 -0.048727125 -0.046583243
-0.02445131 -0.025096813 -0.0070908815 -0.0076723704 -0.022813398 -0.038743522 -0.051555965 -0.0075056157
-0.028823363 -0.039658815 -0.017590124 -0.028454438 -0.039268263 -0.007888774 0.019624501 -0.022966877
-0.0049136286 -0.01309941 -0.053084176 0.020027079 -0.0014699938 -0.020620676 0.030488394 -0.036167946
-0.037376806 -0.030397099 -0.041718338 -0.027291467 -0.008582914 -0.02838835 -0.031458378 -0.026347209
-0.04185244 -0.0067701465 -0.053032298 -0.006531447 -0.06536941 -0.015138797 -0.046279542 -0.01703629
00000000: 1106 82bc eefe 50bd 7772 173b 49d9 393d
00000010: 9f67 a7bc 7cc0 f53b 81b6 76bd 285a 92bc
00000020: fed8 ddbc 960f 4fbd 476e 10bd d3cf 813c
00000030: e093 2abd 5300 cfbb 6503 6abb cbe5 13bd
00000040: a1c9 ca3b 71bf 52bd a7a5 e9bc e8b7 5cbd
00000050: f761 32bd e797 bb3c c2b9 31bd 5ff0 dabc
00000060: 979e d9bc a040 4a3d 97a2 b6bc 83ed cdbb
00000070: 924b afbc ed00 37bd de6e 9ebb 7a7a eabc
00000080: 8385 e6bc db02 11bc e8d7 b1bc 0b82 8abc
00000090: c34c babb 9d3d 6abd d166 92bc 0321 fbbc
000000a0: dc19 1cbd a3fa a7bb 3875 88bd 60ea 0e3c
000000b0: 3e81 23bd 6068 5bbd 76da 32bd 4d31 c63c
000000c0: 7cd2 90bc 2ef3 28bd 9011 11bd cd0e 9abc
000000d0: edf1 1cbd 7d4d 37bc 8061 67bc 5204 fabc
000000e0: 2a89 a6bc 4549 c1bc fbd9 1dbb 7989 11bd
000000f0: c128 bfbc 3122 d6bc ff66 f9bc af47 15bd
00000100: aa70 d9bc d5c1 1ebd 1dd9 5fbd eed7 36bd
00000110: 28a6 9cbc 96f6 193b e681 bfbc acfa c1bc
00000120: fa84 61bd de7f 51bc 9efb 95bc 7a82 3dbc
00000130: 4b08 e6bc 3a3b 40bb 85d7 ecbc 3be0 56ba
00000140: 67e4 683b b794 64bd 3282 1fbd 3b5e 6bbd
00000150: 7cc1 34bd ef9f dcbc 1896 47bd 12ce 3ebd
00000160: 1d4e c8bc d597 cdbc a05a e8bb 8268 fbbb
00000170: 2ae3 babc 87b1 1ebd 592c 53bd abf1 f5bb
00000180: f91e ecbc 4871 22bd 2a19 90bc 4819 e9bc
00000190: c2d7 20bd eb3f 01bc 90c3 a03c 0825 bcbc
000001a0: 8102 a1bb e89e 56bc cb6e 59bd d40f a43c
000001b0: cfac c0ba b1ec a8bc ccc2 f93c d724 14bd
000001c0: 6c18 19bd 5603 f9bc d9e0 2abd 5b92 dfbc
000001d0: 5a9f 0cbc af8e e8bc 80da 00bd 1ad6 d7bc
000001e0: 776d 2bbd 1bd8 ddbb 6538 59bd c005 d6bb
000001f0: 66e0 85bd b808 78bc 9e8f 3dbd b18f 8bbc

bn1.running_mean f4 [128]
13.745892 -34.037918 11.918138 -45.268295 18.23567 31.634027 -56.30818 58.07267
-24.365084 47.22901 52.254074 83.52693 15.87165 -33.7324 66.57727 -50.144848
54.227108 -20.673603 53.688854 -26.2081 61.48537 -35.762794 3.652177 34.86779
27.050802 18.750196 -39.871254 71.78118 -45.458 -25.203955 -58.393635 17.897053
37.074554 44.42254 -13.807374 7.7469883 58.097237 -55.546425 -24.816078 -28.774628
20.233257 -6.010314 -44.89118 -46.146706 -76.82588 -30.3842 -26.39578 31.770842
7.0781093 -21.277817 3.6316755 6.822782 -6.139909 4.3311787 43.783806 -8.657293
12.5630865 53.840263 34.171524 -55.001682 44.2537 -3.4343245 68.11195 12.520906
35.183586 15.129377 -35.21626 1.8476357 11.834385 35.420742 59.475445 2.7612548
16.438896 23.367165 -61.248825 13.572646 -28.964024 -1.6039624 -34.987244 10.967571
60.127327 27.512478 13.51186 19.352058 -5.835925 0.39612776 -31.784079 -19.64764
-56.506355 -23.5319 -22.023376 33.295197 -45.43534 10.7082 -1.5349116 56.124157
-0.8354098 44.46759 -22.256893 -96.37383 -47.00878 0.2638102 43.899124 -9.160547
-65.804596 35.43688 8.058673 90.01207 43.48645 -4.2541866 42.450573 -21.663061
-44.1105 -12.879306 -10.165245 -61.72757 38.15549 48.674892 -44.10375 5.038205
-4.507224 -37.39228 35.38494 10.615074 -11.170561 32.788433 26.568378 27.865278
00000000: 2cef 5b41 d426 08c2 b1b0 3e41 bc12 35c2
00000010: a7e2 9141 7d12 fd41 943b 61c2 6a4a 6842
00000020: b1eb c2c1 82ea 3c42 2c04 5142 ca0d a742
00000030: 47f2 7d41 faed 06c2 9027 8542 5394 48c2
00000040: 8fe8 5842 8a63 a5c1 63c1 5642 30aa d1c1
00000050: 05f1 7542 1a0d 0fc2 45bd 6940 9e78 0b42
00000060: 0b68 d841 6700 9641 2a7c 1fc2 f78f 8f42
00000070: fed4 35c2 b3a1 c9c1 1593 69c2 2a2d 8f41
00000080: 584c 1442 aeb0 3142 01eb 5cc1 54e7 f740
00000090: 9263 6842 8a2f 5ec2 5487 c6c1 7032 e6c1
000000a0: b6dd a141 7e54 c0c0 9190 33c2 3a96 38c2
000000b0: daa6 99c2 d712 f3c1 8f2a d3c1 af2a fe41
000000c0: df7f e240 f838 aac1 5f6d 6840 3b54 da40
000000d0: 227a c4c0 0499 8a40 9e22 2f42 4684 0ac1
000000e0: 6702 4941 6e5c 5742 a4af 0842 b901 5cc2
000000f0: ca03 3142 f9cb 5bc0 5239 8842 a255 4841
00000100: febb 0c42 ee11 7241 73dd 0cc2 547f ec3f
00000110: a459 3d41 d7ae 0d42 dbe6 6d42 66b8 3040
00000120: dc82 8341 f4ef ba41 ccfe 74c2 8f29 5941
00000130: 52b6 e7c1 a44e cdbf f0f2 0bc2 2c7b 2f41
00000140: 6282 7042 8e19 dc41 9430 5841 04d1 9a41
00000150: e6bf bac0 42d1 ca3e cb45 fec1 5e2e 9dc1
00000160: 8206 62c2 5541 bcc1 e02f b0c1 482e 0542
00000170: cabd 35c2 ca54 2b41 fc77 c4bf 237f 6042
00000180: 6bdd 55bf d0de 3142 1e0e b2c1 67bf c0c2
00000190: fe08 3cc2 2112 873e b498 2f42 9a91 12c1
000001a0: f49b 83c2 5dbf 0d42 53f0 0041 2e06 b442
000001b0: 20f2 2d42 4c22 88c0 63cd 2942 f34d adc1
000001c0: 2771 30c2 a311 4ec1 d8a4 22c1 08e9 76c2
000001d0: 399f 1842 17b3 4242 3d6a 30c2 fa38 a140
000001e0: 2e3b 90c0 b291 15c2 2e8a 0d42 58d7 2941
000001f0: 9eba 32c1 5b27 0342 0a8c d441 17ec de41

bn1.running_var f4 [128]
1042.8711 273.6644 789.02167 136.32355 1098.5449 270.86655 2195.0708 131.31418
41.877983 1380.8853 948.27277 1759.7659 128.52936 775.4926 933.25446 690.0386
1467.7603 379.72757 1819.2493 356.48932 262.81177 98.80707 31.137684 772.6624
164.74796 38.38875 312.5431 300.04373 186.22668 339.22675 230.16695 651.43475
214.61946 187.23468 750.6074 687.0228 1159.9052 1845.2443 232.40694 182.0232
1374.4706 45.87281 90.715195 303.62738 1554.6779 126.107574 549.24225 1667.2218
101.55465 981.9941 84.19016 32.824898 1710.613 116.34896 2012.7346 182.89098
135.09613 1557.1499 651.80676 928.66705 79.842476 1401.5981 1650.3785 573.0781
910.3179 41.265156 79.78952 39.021847 289.96164 118.768394 1343.7136 439.30118
289.30334 1048.672 183.62659 844.5026 479.3256 651.02 316.89398 899.35187
1161.2197 326.88544 176.74136 1515.7742 178.17386 100.25803 285.64 83.61964
1426.8093 622.6869 963.2288 98.342834 180.15445 900.6336 551.9504 617.2853
55.602116 1287.3538 707.96954 1147.3757 1361.2307 1997.7297 1576.4967 241.17937
274.48962 390.39432 33.600887 1948.8691 114.0973 285.0431 308.47665 23.04377
1558.2032 472.93185 225.10439 1578.3448 1826.3735 384.45743 134.06694 956.3008
694.99036 104.10181 905.1466 60.524105 7.725034 183.49626 711.8452 135.57106
00000000: e05b 8244 0bd5 8843 6341 4544 d452 0843
00000010: 7051 8944 eb6e 8743 2231 0945 6e50 0343
00000020: 0e83 2742 549c ac44 7511 6d44 82f8 db44
00000030: 8487 0043 87df 4144 4950 6944 7882 2c44
00000040: 5478 b744 21dd bd43 fa67 e344 a23e b243
00000050: e867 8343 389d c542 fa19 f941 652a 4144
00000060: 7abf 2443 148e 1942 8445 9c43 9905 9643
00000070: 083a 3a43 069d a943 bd2a 6643 d3db 2244
00000080: 959e 5643 143c 3b43 e0a6 3b44 76c1 2b44
00000090: f7fc 9044 d1a7 e644 2d68 6843 f005 3643
000000a0: 0fcf ab44 c27d 3742 2e6e b542 4ed0 9743
000000b0: b155 c244 1437 fc42 814f 0944 1967 d044
000000c0: fb1b cb42 9f7f 7544 5d61 a842 b24c 0342
000000d0: 9ed3 d544 abb2 e842 8297 fb44 17e4 3643
000000e0: 9c18 0743 cca4 c244 a2f3 2244 b12a 6844
000000f0: 59af 9f42 2433 af44 1d4c ce44 0045 0f44
00000100: 5894 6344 850f 2542 3c94 9f42 5f16 1c42
00000110: 17fb 9043 6b89 ed42 d6f6 a744 8da6 db43
00000120: d4a6 9043 8115 8344 68a0 3743 2b20 5344
00000130: ada9 ef43 48c1 2244 6e72 9e43 85d6 6044
00000140: 0827 9144 5671 a343 cabd 3043 c678 bd44
00000150: 822c 3243 1d84 c842 ecd1 8e43 413d a742
00000160: e659 b244 f6ab 1b44 a5ce 7044 88af c442
00000170: 8a27 3443 8d28 6144 d3fc 0944 4252 1a44
00000180: 9168 5e42 52eb a044 0dfe 3044 066c 8f44
00000190: 6227 aa44 5ab7 f944 e50f c544 eb2d 7143
000001a0: ac3e 8943 7932 c343 4f67 0642 d09b f344
000001b0: d131 e442 8485 8e43 033d 9a43 a459 b841
000001c0: 81c6 c244 4777 ec43 b91a 6143 094b c544
000001d0: f44b e444 8d3a c043 2311 0643 4013 6f44
000001e0: 62bf 2d44 2034 d042 6249 6244 af18 7242
000001f0: 7b33 f740 0b7f 3743 18f6 3144 3192 0743

fc2.weight f4 [256, 128]
0.030009395 0.10019846 0.043327514 0.033850506 -0.023631189 -0.03470671 -0.0038645717 -0.07488724
-0.02163199 0.0013923274 -0.05367884 -0.030562893 -0.08230667 -0.08974764 -0.0265121 -0.033108406
-0.060427316 0.026218036 0.06764612 0.015758542 -0.06375789 0.08388222 0.0011366686 -0.009620624
0.005853475 -0.0606666 -0.06434886 -0.0010104857 0.08260983 0.051324267 -0.009844247 -0.037420534
0.006923462 0.025950778 0.035013814 -0.057287686 -0.0913387 0.009362683 0.0981639 0.050378364
0.0035332679 -0.053467236 0.04877657 0.032191206 -0.049738217 0.08804932 0.02625137 0.077977225
-0.036265932 -0.0075268145 -0.091807775 -0.047763266 0.013007577 -0.025031833 0.015457895 -0.01912033
0.057379503 0.03248554 -0.016389443 -0.035965867 -0.049954418 0.06438628 0.06983497 -0.017192308
-0.059335403 -0.056610726 -0.056198508 0.08424029 -0.0002576396 -0.07999828 0.012234518 -0.025796104
-0.06018231 -0.024063148 -0.06325159 -0.021576578 0.01557856 -0.0713901 -0.038609862 -0.09461117
-0.039016906 0.052224766 0.035154823 0.03871645 -0.05348979 0.0165109 0.054492407 -0.013244157
-0.008888209 -0.08969618 -0.001461293 0.058792084 -0.028869487 0.041321974 0.03217721 -0.026913077
0.0698146 -0.076728165 0.02140776 0.015495428 -0.04394732 0.06256288 -0.008503356 0.008629018
0.03155553 0.057136886 -0.065713726 0.04340028 -0.02783476 0.009579091 -0.070782974 0.032102127
-0.027667927 -0.018929034 -0.0021333029 -0.012703262 -0.03414027 -0.037567344 0.08848088 0.05357596
0.056299984 0.019456454 -0.010055122 -0.07657432 0.006414428 0.032665703 -0.036218546 -0.08308212
-0.074545324 0.056552865 -0.06964037 0.06614194 0.013511082 0.06936981 -0.04899234 -0.0024025529
0.014631202 0.079538606 0.06206358 -0.0070362044 0.09880658 0.010244589 0.02579867 0.06863887
-0.0058656735 -0.05612586 -0.058481593 -0.051817726 0.029546369 -0.07042734 -0.0015356385 0.023197819
0.018562926 0.06343341 -0.067814805 -0.0075110747 0.014932798 0.0010623023 0.061532103 0.07169295
-8.016573e-05 0.073106825 0.025728947 -0.014076863 0.0646196 -0.039343014 0.0133741405 -0.060986813
0.08687153 -0.04989454 -0.062385235 0.036945164 -0.07615954 -0.0034208866 -0.033261646 0.052123293
0.021975279 0.021917678 0.04313133 0.034866374 0.065144435 0.037692722 0.08668522 0.036766913
-0.042883947 -0.018467257 -0.058485348 -0.039077505 0.08443006 -0.048012212 -0.0584286 0.038191006
0.03137964 -0.06893546 0.016251024 0.05531953 0.06254997 0.05974388 0.033636965 -0.058113817
-0.040238984 -0.048100777 -0.069369294 0.024995599 0.09798946 -0.04111256 -0.08451409 0.009132176
-0.052847542 0.07862447 -0.04551567 0.060147155 0.015217976 0.06727395 0.038954016 -0.03774929
0.04147493 -0.060104605 0.031568557 0.049613327 0.0319023 -0.033710863 0.0550699 0.0063423743
0.06425231 0.03504507 0.010604478 0.09138721 0.07889941 0.058405127 0.055051118 0.019191457
-0.04229 -0.09394253 -0.0010744659 -0.06482486 0.03192295 0.062066674 -0.06641458 -0.0028278164
0.04170334 0.05160776 0.08514587 -0.024003314 -0.04979542 -0.044823766 0.012335245 -0.059461202
-0.045065776 0.027192377 -0.0033472234 0.03576562 0.104387105 -0.015843172 0.09494182 0.029668905
00000000: 43d6 f53c da34 cd3d 3178 313d d4a6 0a3d
00000010: 3296 c1bc a028 0ebd c144 7dbb 7b5e 99bd
00000020: 9235 b1bc c17e b63a 58de 5bbd 085f fabc
00000030: 6690 a8bd 9ccd b7bd e72f d9bc ae9c 07bd
00000040: a282 77bd 35c7 d63c 0d8a 8a3d 0f18 813c
00000050: 7f93 82bd 71ca ab3d 45fc 943a d29f 1dbc
00000060: 82ce bf3b 8a7d 78bd 56c9 83bd 4672 84ba
00000070: 582f a93d 6539 523d c449 21bc 4646 19bd
00000080: 35de e23b ba96 d43c a56a 0f3d 7ea6 6abd
00000090: c90f bbbd f065 193c 280a c93d 8b59 4e3d
000000a0: 668e 673b 7600 5bbd f1c9 473d edda 033d
000000b0: 4dba 4bbd 3453 b43d 1d0d d73c 86b2 9f3d
000000c0: 968b 14bd 7fa3 f6bb b705 bcbd 6aa3 43bd
000000d0: bb1d 553c 8f0f cdbc 1c43 7d3c 3da2 9cbc
000000e0: c506 6b3d 8f0f 053d 2743 86bc f250 13bd
000000f0: 019d 4cbd f4dc 833d a305 8f3d e2d6 8cbc
00000100: ae09 73bd a6e0 67bd 6830 66bd 2c86 ac3d
00000110: cd13 87b9 23d6 a3bd 4a73 483c 5a52 d3bc
00000120: ba81 76bd 1420 c5bc 0d8a 81bd 5dc1 b0bc
00000130: 373d 7f3c f934 92bd 6025 1ebd 80c3 c1bd
00000140: 31d0 1fbd a3e9 553d 81fe 0f3d 2495 1e3d
00000150: 1c18 5bbd de41 873c 6e33 5f3d 05fe 58bc
00000160: da9f 11bc a1b2 b7bd db88 bfba f8cf 703d
00000170: b47f ecbc 3b41 293d 40cc 033d d078 dcbc
00000180: f5fa 8e3d a823 9dbd 545f af3c 89e0 7d3c
00000190: 1b02 34bd f820 803d a951 0bbc ba60 0d3c
000001a0: 5f40 013d 5e08 6a3d eb94 86bd 7ec4 313d
000001b0: b905 e4bc 9ff1 1c3c aaf6 90bd 857d 033d
000001c0: d9a7 e2bc 1011 9bbc e2ce 0bbb 5821 50bc
000001d0: abd6 0bbd 37e0 19bd 7735 b53d 7772 5b3d
000001e0: d09a 663d 2463 9f3c 3dbe 24bc ffd2 9cbd
000001f0: 1f30 d23b 79cc 053d e659 14bd f526 aabd
00000200: 38ab 98bd faa3 673d 9c9f 8ebd 6d75 873d
00000210: 965d 5d3c c211 8e3d 31ac 48bd 2674 1dbb
00000220: b6b7 6f3c 23e5 a23d 6136 7e3d f68f e6bb
00000230: 1b5b ca3d ecd8 273c bb57 d33c 8992 8c3d
00000240: d634 c0bb 3be4 65bd 658a 6fbd d33e 54bd
00000250: 3a0b f23c 363c 90bd 7a47 c9ba 5a09 be3c
00000260: 4711 983c 60e9 813d 7de2 8abd 761f f6bb
00000270: b2a8 743c f33c 8b3a 1609 7c3d c1d3 923d
00000280: a61e a8b8 08b9 953d 83c5 d23c a5a2 66bc
00000290: 4857 843d 2426 21bd 361f 5b3c 4fcd 79bd
000002a0: b3e9 b13d 385e 4cbd a987 7fbd d053 173d
000002b0: 88f9 9bbd f430 60bb 5d3d 08bd 3c7f 553d
000002c0: 8005 b43c b48c b33c 7aaa 303d 0bd0 0e3d
000002d0: 726a 853d af63 1a3d 0588 b13d e798 163d
000002e0: 14a7 2fbd a548 97bc 558e 6fbd bc0f 20bd
000002f0: abe9 ac3d 74a8 44bd d452 6fbd 2c6e 1c3d
00000300: f087 003d 092e 8dbd de20 853c bb96 623d
00000310: 331a 803d 00b6 743d eac6 093d c108 6ebd
00000320: a2d1 24bd 5205 45bd 7d11 8ebd 92c3 cc3c
00000330: b3ae c83d a565 28bd b915 adbd 1f9f 153c
00000340: aa76 58bd de05 a13d a46e 3abd dd5c 763d
00000350: d154 793c edc6 893d 3f8e 1f3d 009f 1abd
00000360: 9ee1 293d 3f30 76bd 084e 013d 5837 4b3d
00000370: fcab 023d 6714 0abd fa90 613d b1d3 cf3b
00000380: b796 833d 6b8b 0f3d 68be 2d3c 3829 bb3d
00000390: 0496 a13d 373a 6f3d 487d 613d 6737 9d3c
000003a0: 4738 2dbd f164 c0bd 18d5 8cba e5c2 84bd
000003b0: a4c1 023d a039 7e3d 5e04 88bd e352 39bb
000003c0: 1fd1 2a3d a962 533d f560 ae3d 99a2 c4bc
000003d0: 48f6 4bbd 2099 37bd c419 4a3c 978d 73bd
000003e0: e496 38bd 8cc2 de3c 175d 5bbb f97e 123d
000003f0: e8c8 d53d 8ac9 81bc db70 c23d 340c f33c

fc2.bias f4 [256]
8.885678e-06 -0.00011969374 8.337513e-06 -0.0060982504 0.008407487 0.00011818367 1.0408811e-06 0.00017049394
1.756118e-05 -0.0008943798 6.5816464e-05 -0.00011872068 -4.597798e-06 -4.4913162e-05 -0.0058102426 -1.1141526e-06
0.00015845879 -7.55387e-05 0.008929908 -0.0044872267 0.00021350612 -1.2062776e-05 -1.51614795e-05 6.94388e-06
-1.00216985e-05 1.2673001e-05 -2.2046056e-06 9.9114595e-06 -0.0013896556 -1.1288816e-05 -0.001129492 0.00017116201
-0.010934315 0.000988025 0.0022220523 1.6385462e-07 -0.00012358074 -4.7170135e-05 0.0040510315 -9.335049e-06
-8.79959e-06 0.0014641064 -4.4493507e-05 0.0025765568 0.00015262129 6.653257e-06 1.9952075e-05 -0.0016184088
0.0070994436 -0.0013161623 0.00018759463 0.00022007515 3.4676857e-05 -4.2983298e-05 0.0029616442 -3.0691062e-05
-0.0023569695 0.00017897738 0.0001880701 -0.00015233524 -1.8956772e-06 -0.002827304 -0.0005868612 0.005996839
-1.3909109e-05 -1.1100251e-06 0.00053075986 -0.000686808 0.008120871 0.008344238 -0.001907358 6.34384e-06
0.00012658756 -1.6007762e-05 -0.0011031361 0.007454712 -0.009077119 0.004798993 -1.400152e-06 -0.010195621
-5.513141e-06 -4.4304103e-05 0.00021504913 -5.1851515e-05 -0.010920589 -3.3999322e-07 -0.00020693165 -0.00011029444
-1.2210182e-05 -0.0001954552 -0.00016668435 -0.0018279697 -1.590362e-05 -0.00689749 4.5117818e-06 -0.01141434
3.3504868e-05 0.00016309961 -0.00026826627 -0.006027683 4.851911e-05 5.305592e-06 0.00820216 7.4200056e-05
-3.9471346e-05 -0.00019815448 -1.3072299e-06 -1.0049693e-05 -1.425512e-06 -0.0044831648 -5.0758613e-06 3.122027e-06
0.0008459211 1.0256782e-05 -0.00783325 0.00014603983 0.0036079222 0.0031935296 -6.0868833e-06 8.9897854e-05
0.00026360026 0.0069973604 -2.3987299e-05 0.003635407 -2.5182839e-05 -0.0041734832 -3.9863186e-05 0.0009407073
1.0988304e-05 -1.322225e-05 -4.774362e-06 0.00020721678 1.8368333e-05 0.00016327613 -9.6579985e-05 2.5255502e-05
2.4481645e-07 0.011166348 -0.0016403655 -0.00049849064 6.1267303e-07 0.0058037736 -0.0023057237 0.0001507434
-0.0052631535 0.009076296 0.000806431 -0.0071491515 -0.0005206957 -2.7182601e-05 6.237678e-05 -0.0037735559
-9.8933066e-05 4.9175065e-05 9.512538e-06 0.007461662 0.0001568666 -1.0730815e-05 -4.872225e-05 -2.0771e-05
-0.007211935 7.5554267e-06 1.7448563e-05 0.009219696 -2.5990194e-05 -0.003957659 -0.0058099204 -1.6476848e-06
-4.9715087e-05 6.4898895e-06 -0.00010516861 -0.0005215853 -0.002402491 -1.2038908e-05 0.0037687202 0.0054785023
1.3814443e-05 -0.008338412 0.007661862 -0.00018750395 -3.0714986e-05 -0.00010737255 -0.00018239963 0.0065544946
1.029137e-06 2.6932998e-05 0.003593112 0.007900007 -3.0603984e-05 0.002235548 -0.00021047532 2.560912e-05
1.3066534e-06 -2.287514e-06 0.0028315969 7.4947206e-06 -5.8383653e-06 0.0060154 0.00011405468 -7.660093e-06
4.5147138e-07 0.003907402 -0.006877635 0.0023535497 -3.3548898e-07 -1.9872425e-05 -4.576719e-06 0.00014521932
5.9720485e-05 -0.008368039 5.3511976e-06 -1.1998366e-05 0.0053518056 -0.00917739 8.243878e-06 2.2404749e-05
0.00874034 0.003919281 1.8636376e-06 -0.00018792348 -0.010243318 0.007883828 -3.1740932e-05 0.010979058
0.010378769 -0.0027268392 -0.006714067 5.2286374e-05 -1.6820278e-06 -0.010767568 0.00010300355 0.00015901928
-3.0333436e-05 -1.365169e-06 0.0021114629 -4.5148827e-05 0.00020983527 2.090896e-05 8.924214e-06 0.00015667286
3.678107e-05 -2.7204449e-05 -0.0011418951 -0.00067522906 -0.0054356926 -1.6771617e-05 0.0063569173 1.2952607e-05
-4.782904e-05 -0.0012602156 -0.0055454066 5.0833405e-06 0.0055023944 -5.595018e-06 0.009212182 0.0060688243
00000000: b213 1537 1604 fbb8 58e1 0b37 d5d3 c7bb
00000010: 8ebf 093c 60d9 f738 67b4 8b35 9ec6 3239
00000020: 5950 9337 d074 6aba f206 8a38 aef9 f8b8
00000030: c946 9ab6 2461 3cb8 d963 bebb fe89 95b5
00000040: f527 2639 886a 9eb8 c04e 123c 9609 93bb
00000050: 9de0 5f39 3a61 4ab7 0f5e 7eb7 7aff e836
00000060: de22 28b7 209e 5437 d6f2 13b6 6549 2637
00000070: 1b25 b6ba 1865 3db7 760b 94ba f479 3339
00000080: d725 33bc 9e80 813a da9f 113b 04f0 2f34
00000090: 7495 01b9 8cd8 45b8 84be 843b bb9d 1cb7
000000a0: f4a1 13b7 42e7 bf3a 8a9e 3ab8 73db 283b
000000b0: f708 2039 0b3f df36 c15e a737 ca20 d4ba
000000c0: 73a2 e83b 1483 acba 0db5 4439 f9c3 6639
000000d0: fe71 1138 f748 34b8 2518 423b 47ba 00b8
000000e0: 6377 1abb e0ab 3b39 af34 4539 2ebc 1fb9
000000f0: f96e feb5 4a4a 39bb 97d7 19ba 2281 c43b
00000100: 2b5b 69b7 2cfc 94b5 b122 0b3a e80a 34ba
00000110: 670d 053c 45b6 083c 5000 faba 2cdd d436
00000120: 97bc 0439 6848 86b7 1b97 90ba a846 f43b
00000130: 32b8 14bc df40 9d3b dbec bbb5 890b 27bc
00000140: 85fd b8b6 2bd3 39b8 d07e 6139 247b 59b8
00000150: 45ec 32bc 5088 b6b4 cbfb 58b9 e04d e7b8
00000160: 55da 4cb7 1bf3 4cb9 fdc7 2eb9 7c98 efba
00000170: c468 85b7 5704 e2bb e963 9736 3603 3bbc
00000180: 9487 0c38 b805 2b39 17a6 8cb9 df83 c5bb
00000190: ff80 4b38 b006 b236 5a62 063c da9b 9b38
000001a0: 098e 25b8 b0c7 4fb9 1474 afb5 1a9b 28b7
000001b0: 3854 bfb5 83e7 92bb 5151 aab6 0484 5136
000001c0: cec0 5d3a 8b14 2c37 0857 00bc 4522 1939
000001d0: e472 6c3b 894a 513b ee3d ccb6 8b87 bc38
000001e0: d433 8a39 1d4a e53b 5538 c9b7 0240 6e3b
000001f0: bc3f d3b7 b7c1 88bb c532 27b8 cc99 763a
00000200: 685a 3837 22d5 5db7 7533 a0b6 5548 5939
00000210: b215 9a37 1a35 2b39 fc8a cab8 c7db d337
00000220: 516f 8334 0ff3 363c 8801 d7ba 24ad 02ba
00000230: 9276 2435 952d be3b a01b 17bb e010 1e39
00000240: 8876 acbb bfb4 143c ab66 533a 6e43 eabb
00000250: 4c7f 08ba 3106 e4b7 47d0 8238 c34d 77bb
00000260: 497a cfb8 5341 4e38 0a98 1f37 f580 f43b
00000270: 8f7c 2439 8008 34b7 1e5b 4cb8 623d aeb7
00000280: 1852 ecbb 9f84 fd36 815e 9237 350e 173c
00000290: 8405 dab7 40af 81bb 2561 bebb 0526 ddb5
000002a0: 2b85 50b8 bac3 d936 f88d dcb8 ffba 08ba
000002b0: 1c73 1dbb b7fa 49b7 a2fc 763b 0285 b33b
000002c0: 95c4 6737 d69d 08bc 5b10 fb3b b59c 44b9
000002d0: f7d3 00b8 332d e1b8 8742 3fb9 16c7 d63b
000002e0: e120 8a35 2cee e137 6b7a 6b3b 086f 013c
000002f0: c75c 00b8 4682 123b 0ab3 5cb9 2bd3 d637
00000300: 4560 af35 3183 19b6 5092 393b 297b fb36
00000310: 2de7 c3b6 d51c c53b a430 ef38 d983 00b7
00000320: c161 f234 aa09 803b c95d e1bb 033e 1a3b
00000330: 411d b4b4 b5b3 a6b7 b891 99b6 0446 1839
00000340: 627c 7a38 191a 09bc 708e b336 974c 49b7
00000350: 335e af3b c35c 16bc 304f 0a37 d5f1 bb37
00000360: a533 0f3c 506d 803b 1a22 fa35 530d 45b9
00000370: 97d3 27bc 2c2b 013c 9121 05b8 82e1 333c
00000380: b60b 2a3c c5b4 32bb ad01 dcbb 114e 5b38
00000390: 09c2 e1b5 746a 30bc 9c03 d838 6abe 2639
000003a0: 8f74 feb7 da3a b7b5 7860 0a3b 2f5e 3db8
000003b0: 3a07 5c39 a665 af37 35b9 1537 8d48 2439
000003c0: 6045 1a38 1c35 e4b7 a4ab 95ba db01 31ba
000003d0: e51d b2bb c6b0 8cb7 b04d d03b 064f 5937
000003e0: 0a9c 48b8 d22d a5ba 3eb6 b5bb 9091 aa36
000003f0: 6e4d b43b d7bc bbb6 b1ee 163c fddc c63b

bn2.weight f4 [256]
0.9996298 1.0040481 1.0021701 0.9938757 1.0394504 1.0139161 0.98680794 1.0010117
0.98246247 0.99389 0.9978108 0.9992961 0.99915594 0.9905166 1.0126059 0.9900889
0.9899543 1.0093724 1.0109357 1.0047084 1.0108489 1.0044804 1.0073931 1.0042595
0.99699926 1.0047817 0.9912987 0.9953902 1.0022368 1.0040772 0.9949206 0.98164475
0.9756066 0.99066216 0.9950405 0.9894289 0.9950066 0.9850827 0.9888245 0.9735277
0.98194665 0.98436844 0.964761 0.9890774 1.0015029 0.98642695 1.0009133 0.9881604
0.9945094 0.99922806 0.9954995 1.0035156 0.9948713 1.000595 0.9923468 1.0215176
0.9954275 1.0151829 0.98057127 0.984686 0.9814667 1.004252 0.9732839 0.991436
1.0220566 0.9918993 1.0034262 1.0002382 0.99525803 0.9879693 1.0043457 0.9942389
0.9977512 1.0030456 0.97767943 0.98741925 0.99697447 0.9844444 1.0048261 1.015094
0.99366355 0.98947394 1.0015408 0.9849246 1.0051938 0.98909265 0.98783255 1.0147328
0.99112535 0.9955805 1.0075929 1.0260516 0.99532866 1.0001687 0.99838275 1.0049925
0.99173695 1.0178505 0.9887146 1.0022985 1.0143726 0.9940204 0.9886099 1.012594
1.0134773 1.021055 1.0055271 0.97798395 1.0081486 0.98317236 1.001905 1.009783
0.99594486 1.0028211 1.0070891 0.98845583 0.9959559 1.0018018 1.0072933 0.981055
0.99312615 1.003196 0.9926092 0.98268944 1.0105546 1.0107429 1.0006859 0.9980578
1.0156363 0.98214126 0.98287636 0.9855888 1.0037056 1.0177976 0.99831253 1.0016956
0.9774552 1.0090728 1.0128119 0.98256886 0.99175906 1.022246 1.0012599 0.99475485
1.0060734 0.99434763 1.0023725 1.0089923 1.0039598 0.998639 0.9995871 1.0039763
1.00121 1.0142366 0.99640584 0.99478036 1.003229 0.9817627 1.0012211 1.0000033
1.0171586 0.9803956 0.98650306 1.0035777 0.97737783 1.0042851 1.0023153 1.0019791
0.99915403 0.9952303 0.99324715 1.0194083 0.99882203 0.9903552 1.0122867 0.986284
0.99951607 1.0123184 0.9761804 1.0028976 1.0059093 1.0082715 1.0088905 0.98854584
1.0071658 0.97331846 1.017904 0.9962458 1.026523 0.99251705 1.0034213 1.0153915
1.0169437 1.0101092 0.9916567 0.99378705 0.9747298 1.0061337 0.97119373 0.9836596
1.0231463 0.98982954 0.9893223 1.002356 0.9909138 1.0061876 0.97648585 1.0157406
1.0289495 1.0050584 1.0137196 0.9938945 0.98516065 0.984213 1.0076238 0.9819147
0.9908466 1.0120189 0.9857911 0.994713 0.9932193 0.99099195 0.98488325 0.98892325
1.0020156 0.9945723 1.0044687 1.0109583 0.98932266 0.97868216 0.98009443 0.98319054
1.0197101 0.9897969 1.0107164 1.0101517 0.97574836 1.0031153 1.002351 1.0046964
1.0145677 1.0106089 0.95635474 0.98041964 0.9963116 1.0058072 0.9917456 0.9923195
0.9869893 1.021388 0.9957365 0.9908315 0.9920435 1.0141151 0.9998114 0.99394464
00000000: bde7 7f3f a684 803f 1c47 803f a36e 7e3f
00000010: b60c 853f 01c8 813f 729f 7c3f 2721 803f
00000020: a982 7b3f 936f 7e3f 8770 7f3f dfd1 7f3f
00000030: afc8 7f3f 7f92 7d3f 129d 813f 7776 7d3f
00000040: a56d 7d3f 1d33 813f 5766 813f 499a 803f
00000050: 7f63 813f d092 803f 42f2 803f 938b 803f
00000060: 583b 7f3f b09c 803f c0c5 7d3f e4d1 7e3f
00000070: 4c49 803f 9a85 803f 1eb3 7e3f 124d 7b3f
00000080: 5bc1 793f 099c 7d3f f9ba 7e3f 364b 7d3f
00000090: c1b8 7e3f 612e 7c3f 9a23 7d3f 1d39 793f
000000a0: db60 7b3f 92ff 7b3f 94fa 763f 2d34 7d3f
000000b0: 3f31 803f 7a86 7c3f ed1d 803f 14f8 7c3f
000000c0: 2b98 7e3f 69cd 7f3f 0ed9 7e3f 3373 803f
000000d0: e3af 7e3f 7f13 803f 710a 7e3f 17c1 823f
000000e0: 56d4 7e3f 83f1 813f b806 7b3f 6214 7c3f
000000f0: 6741 7b3f 548b 803f 2229 793f c0ce 7d3f
00000100: c0d2 823f 1ded 7d3f 4570 803f ce07 803f
00000110: 3bc9 7e3f 8eeb 7c3f 668e 803f 7186 7e3f
00000120: 9f6c 7f3f cc63 803f 3349 7a3f 82c7 7c3f
00000130: b839 7f3f 8c04 7c3f 249e 803f 9aee 813f
00000140: bc60 7e3f 2a4e 7d3f 7d32 803f 0524 7c3f
00000150: 31aa 803f 2d35 7d3f 98e2 7c3f c4e2 813f
00000160: 64ba 7d3f 5dde 7e3f cef8 803f a955 833f
00000170: dccd 7e3f 8705 803f 0396 7f3f 98a3 803f
00000180: 79e2 7d3f ed48 823f 661c 7d3f 514b 803f
00000190: f6d6 813f 1f78 7e3f 8a15 7d3f ae9c 813f
000001a0: a0b9 813f eeb1 823f 1db5 803f 285d 7a3f
000001b0: 030b 813f 2fb1 7b3f 6c3e 803f 9240 813f
000001c0: 3ef6 7e3f 715c 803f 4ce8 803f 710b 7d3f
000001d0: f7f6 7e3f 0b3b 803f fdee 803f 6c26 7b3f
000001e0: 843d 7e3f ba68 803f a31b 7e3f 8991 7b3f
000001f0: da59 813f 0660 813f 7a16 803f b780 7f3f
00000200: 5f00 823f 9c6d 7b3f c99d 7b3f 8c4f 7c3f
00000210: 6d79 803f 3147 823f 6991 7f3f 9037 803f
00000220: 813a 7a3f 4c29 813f d2a3 813f a289 7b3f
00000230: ece3 7d3f f5d8 823f 4929 803f 41a8 7e3f
00000240: 03c7 803f 918d 7e3f be4d 803f a926 813f
00000250: c181 803f cea6 7f3f f1e4 7f3f 4c82 803f
00000260: a627 803f 81d2 813f 7414 7f3f eda9 7e3f
00000270: cf69 803f cd54 7b3f 0328 803f 1c00 803f
00000280: 4132 823f 35fb 7a3f 778b 7c3f 3c75 803f
00000290: 6f35 7a3f 6a8c 803f de4b 803f da40 803f
000002a0: 8fc8 7f3f 6ac7 7e3f 7245 7e3f f97b 823f
000002b0: cdb2 7f3f eb87 7d3f 9c92 813f 1c7d 7c3f
000002c0: 49e0 7f3f a693 813f f5e6 793f f35e 803f
000002d0: a3c1 803f 0a0f 813f 5323 813f 5711 7d3f
000002e0: cfea 803f 662b 793f ae4a 823f f709 7f3f
000002f0: 1b65 833f 9915 7e3f 1c70 803f 59f8 813f
00000300: 362b 823f 424b 813f 37dd 7d3f d468 7e3f
00000310: e487 793f fdc8 803f 27a0 783f 1ed1 7b3f
00000320: 75f6 823f 7865 7d3f 3a44 7d3f 344d 803f
00000330: 87ac 7d3f c1ca 803f fafa 793f ca03 823f
00000340: 9eb4 833f c1a5 803f 90c1 813f df6f 7e3f
00000350: 7d33 7c3f 62f5 7b3f d1f9 803f c35e 7b3f
00000360: 1fa8 7d3f d689 813f ce5c 7c3f 83a5 7e3f
00000370: 9f43 7e3f a6b1 7d3f 4f21 7c3f 132a 7d3f
00000380: 0c42 803f 4a9c 7e3f 6e92 803f 1567 813f
00000390: 4044 7d3f ea8a 7a3f 78e7 7a3f 60b2 7b3f
000003a0: dc85 823f 5463 7d3f 285f 813f a74c 813f
000003b0: a5ca 793f 1566 803f 0a4d 803f e499 803f
000003c0: 5bdd 813f a25b 813f aad3 743f c8fc 7a3f
000003d0: 470e 7f3f 4abe 803f 0ae3 7d3f a708 7e3f
000003e0: 55ab 7c3f d8bc 823f 96e8 7e3f 22a7 7d3f
000003f0: 90f6 7d3f 86ce 813f a4f3 7f3f 2873 7e3f

bn2.bias f4 [256]
-0.006976335 -0.016249726 0.015060791 0.007847962 0.020420043 0.016977347 -0.019378925 -0.025736524
-0.003437076 -0.0024363731 -0.0101986565 -0.007844894 0.027098408 0.00014048495 -0.012942289 -0.0019742032
0.014866639 0.014078954 0.005005063 -0.019229341 0.010312305 0.006592499 0.01728677 0.008082318
0.011973982 0.0048043635 -0.018779567 -0.021508118 0.010313464 0.002545377 0.0299029 -0.01008182
-0.0035188177 0.0010874124 -0.00680203 -0.013677436 -0.0001544089 -0.0018931101 -0.024363052 -0.031887356
-0.0024456338 -0.013191441 -0.01854566 -0.018424341 0.022617105 -0.020978127 0.013358832 -0.003738602
-0.0027800072 -0.028342247 -0.015369467 0.015859427 -0.018373387 -0.009474633 -0.0045069032 0.027783193
2.8721297e-05 0.00704527 -0.0017766062 0.0013255822 -0.008433726 0.011145099 0.0023190437 0.026073225
0.013230492 -0.007114139 0.0007005245 0.0048481617 -0.0051780636 -0.0072170305 0.002620059 0.009786889
0.004690256 -0.000915594 -0.01802486 -0.042779095 -0.008191481 -0.009836159 0.012140909 0.023018336
0.0039889244 0.0057947934 -0.010654815 -0.026903342 0.0006168966 -0.020613143 -0.0042823893 0.026745193
0.0028061152 -0.002837466 0.00042001173 0.0003933826 -0.015786916 -0.005097051 -0.010961062 -0.015742734
-0.0014773665 -0.0011709356 -0.014246155 0.020330414 0.022064632 0.012175207 -0.007536002 0.0064328033
-7.5221964e-05 0.0077125165 0.00067406567 0.009199311 -0.0032626952 -0.011459495 0.0067098974 -0.011874878
0.006288475 0.004558066 -0.0052901143 0.013448041 0.008532752 -0.0043468806 0.014703463 -0.0067736874
-0.013499154 -0.006237191 0.007598398 0.021864697 0.013791981 0.010366081 0.011703576 -0.016988518
0.011677727 0.009969753 -0.0008723676 0.0045844093 -0.0045978874 0.017938009 -0.0020487593 0.010116487
-0.010589357 0.0010876372 0.018713556 -0.012941732 -0.028627409 0.026821334 -0.0019255043 -0.010842839
0.00017512814 -0.015184105 0.01929221 0.01403891 -0.010437152 0.00972453 -0.013954087 0.019979684
0.0023116965 0.034244843 -0.02087361 -0.0012399234 0.027543249 -0.011864546 0.009885992 0.0022349842
0.006983874 -0.020797828 0.008318234 -0.0043539596 -0.020683317 -0.015190713 0.0032240816 -0.005974188
0.0040274714 -0.00016793128 -0.013415577 0.005442478 -0.009810072 0.009370172 0.013696634 -0.0067420728
-0.001247189 0.024360346 -0.014209648 0.00207577 -0.012224862 0.011273146 0.012783364 -0.0068162903
0.01790054 -0.004362144 -0.011047985 -0.001704779 0.022690928 -0.0012974939 0.0029460436 0.009931417
0.0140443565 0.016310405 0.012086814 0.005739925 -0.01352313 -0.0010028627 -0.024412574 -0.007550291
-0.007360795 -0.00971279 -0.013956447 0.009597594 0.01252757 -0.008968662 -0.019420173 -0.011395826
0.02549389 0.000929434 0.010416528 0.0020089538 0.0033160993 -0.0002896792 -0.00435563 0.00055778044
-0.0031598064 0.023856064 0.010427712 -0.01496792 -0.02202103 -0.0027330776 0.00010187622 0.012805987
0.01662776 0.004032081 0.00012719125 0.018632207 -0.0057058106 -0.020238006 -0.023328248 0.0052963593
-0.00524105 0.009974593 0.0035285545 -0.004528821 -0.014226601 0.0011477732 -0.003873102 0.020412153
0.0076609533 0.017194211 -0.020058181 -0.013467014 -0.009727429 0.0009816452 0.00047013722 0.012760865
-0.018071791 0.0024056234 0.011842286 -0.011661518 -0.01675151 -0.026291689 -0.030868683 -0.0009493687
00000000: bd99 e4bb 251e 85bc 89c1 763c bd94 003c
00000010: ef47 a73c 1414 8b3c 8dc0 9ebc 67d5 d2bc
00000020: 9140 61bb 8fab 1fbb 4418 27bc df87 00bc
00000030: 7bfd dd3c 244f 1339 e50b 54bc a261 01bb
00000040: 3493 733c 6aab 663c 8301 a43b da86 9dbc
00000050: f1f4 283c e405 d83b fc9c 8d3c b36b 043c
00000060: 852e 443c ec6d 9d3b 9bd7 99bc cb31 b0bc
00000070: cef9 283c 57d0 263b edf6 f43c 382e 25bc
00000080: f79b 66bb 8187 8e3a 90e3 debb 5317 60bc
00000090: d3e8 21b9 3c22 f8ba 0695 c7bc 519c 02bd
000000a0: ed46 20bb ea20 58bc 11ed 97bc a5ee 96bc
000000b0: 8247 b93c 52da abbc 01df 5a3c 5503 75bb
000000c0: c830 36bb 002e e8bc 38d0 7bbc a1eb 813c
000000d0: c983 96bc 7e3b 1bbc a5ae 93bb 9499 e33c
000000e0: 84ee f037 02dc e63b 03dd e8ba 28bf ad3a
000000f0: 9c2d 0abc ef99 363c 19fb 173b 8497 d53c
00000100: b5c4 583c b91d e9bb 67a3 373a 54dd 9e3b
00000110: bfac a9bb d77c ecbb 4cb5 2b3b 3059 203c
00000120: b8b0 993b 7904 70ba dfa8 93bc 2239 2fbd
00000130: 9035 06bc d727 21bc aaea 463c f390 bc3c
00000140: 86b5 823b 40e2 bd3b 8891 2ebc 6664 dcbc
00000150: 3bb7 213a e5dc a8bc 4953 8cbb bc18 db3c
00000160: cde6 373b c8f4 39bb 0535 dc39 eb3e ce39
00000170: 9053 81bc 2a05 a7bb 0796 33bc e8f6 80bc
00000180: 32a4 c1ba 147a 99ba b468 69bc f88b a63c
00000190: e3c0 b43c 857a 473c 91f0 f6bb 44ca d23b
000001a0: 7cc0 9db8 47b9 fc3b c8b3 303a b5b8 163c
000001b0: f1d2 55bb 9bc0 3bbc b3de db3b d98e 42bc
000001c0: 8d0f ce3b d45b 953b b258 adbb 2c55 5c3c
000001d0: f5cc 0b3c 4770 8ebb cbe6 703c cff5 ddbb
000001e0: 8e2b 5dbc 5a61 ccbb fbfb f83b 981d b33c
000001f0: c3f7 613c 7fd6 293c 5bc0 3f3c 812b 8bbc
00000200: f053 3f3c 2d58 233c 99af 64ba d038 963b
00000210: e0a9 96bb bbf2 923c 7a44 06bb 9fbf 253c
00000220: fc7e 2dbc 0c8f 8e3a 2c4d 993c 8f09 54bc
00000230: 0784 eabc 6ab8 db3c 3461 fcba 2aa6 31bc
00000240: 9aa2 3739 c1c6 78bc b20a 9e3c 7503 663c
00000250: 9700 2bbc a353 1f3c af9f 64bc 6fac a33c
00000260: d57f 173b 5244 0c3d 22ff aabc ed84 a2ba
00000270: 61a2 e13c 8363 42bc dbf8 213c d078 123b
00000280: fbd8 e43b 3560 aabc 3449 083c a9ab 8ebb
00000290: 0f70 a9bc 78e2 78bc 1d4b 533b 1fc3 c3bb
000002a0: e1f8 833b b616 30b9 02cd 5bbc d156 b23b
000002b0: 6dba 20bc 5a85 193c d967 603c 9bec dcbb
000002c0: b878 a3ba 598f c73c 95cf 68bc a409 083b
000002d0: ca4a 48bc 00b3 383c 5171 513c 305b dfbb
000002e0: 27a4 923c 51f0 8ebb 9c02 35bc e472 dfba
000002f0: 53e2 b93c ac10 aaba 6912 413b 62b7 223c
00000300: 4d1a 663c 669d 853c c607 463c fb15 bc3b
00000310: 1e90 5dbc 7d72 83ba e1fc c7bc 6e68 f7bb
00000320: d332 f1bb 6522 1fbc 95a9 64bc 3a3f 1d3c
00000330: 7040 4d3c 4bf1 12bc 0e17 9fbc 8fb5 3abc
00000340: 90d8 d03c 43a5 733a 16aa 2a3c a7a8 033b
00000350: ea52 593b 16e0 97b9 acb9 8ebb 0338 123a
00000360: c114 4fbb cb6d c33c ffd8 2a3c 023c 75bc
00000370: 7265 b4bc 6f1d 33bb 61a6 d538 34d0 513c
00000380: f136 883c 8c1f 843b a45e 0539 92a2 983c
00000390: cff7 babb 2dca a5bc e21a bfbc 158d ad3b
000003a0: 1dbd abbb 7a6c 233c 523f 673b 8166 94bb
000003b0: b116 69bc e170 963a ded3 7dbb 6337 a73c
000003c0: bc08 fb3b e0da 8c3c 0e51 a4bc c0a4 5cbc
000003d0: cb5f 1fbc 8caa 803a c07c f639 f212 513c
000003e0: 4b0b 94bc aaa7 1d3b 2606 423c f40f 3fbc
000003f0: 763a 89bc ab61 d7bc 52e0 fcbc 0edf 78ba
